node {
  name: "global_step/Initializer/zeros"
  op: "Const"
  attr {
    key: "_class"
    value {
      list {
        s: "loc:@global_step"
      }
    }
  }
  attr {
    key: "_output_shapes"
    value {
      list {
        shape {
        }
      }
    }
  }
  attr {
    key: "dtype"
    value {
      type: DT_INT64
    }
  }
  attr {
    key: "value"
    value {
      tensor {
        dtype: DT_INT64
        tensor_shape {
        }
        int64_val: 0
      }
    }
  }
}
node {
  name: "global_step"
  op: "VarHandleOp"
  attr {
    key: "_class"
    value {
      list {
        s: "loc:@global_step"
      }
    }
  }
  attr {
    key: "_output_shapes"
    value {
      list {
        shape {
        }
      }
    }
  }
  attr {
    key: "container"
    value {
      s: ""
    }
  }
  attr {
    key: "dtype"
    value {
      type: DT_INT64
    }
  }
  attr {
    key: "shape"
    value {
      shape {
      }
    }
  }
  attr {
    key: "shared_name"
    value {
      s: "global_step"
    }
  }
}
node {
  name: "global_step/IsInitialized/VarIsInitializedOp"
  op: "VarIsInitializedOp"
  input: "global_step"
  attr {
    key: "_output_shapes"
    value {
      list {
        shape {
        }
      }
    }
  }
}
node {
  name: "global_step/Assign"
  op: "AssignVariableOp"
  input: "global_step"
  input: "global_step/Initializer/zeros"
  attr {
    key: "dtype"
    value {
      type: DT_INT64
    }
  }
}
node {
  name: "global_step/Read/ReadVariableOp"
  op: "ReadVariableOp"
  input: "global_step"
  attr {
    key: "_output_shapes"
    value {
      list {
        shape {
        }
      }
    }
  }
  attr {
    key: "dtype"
    value {
      type: DT_INT64
    }
  }
}
node {
  name: "global_step/VarIsInitializedOp"
  op: "VarIsInitializedOp"
  input: "global_step"
  attr {
    key: "_output_shapes"
    value {
      list {
        shape {
        }
      }
    }
  }
}
node {
  name: "global_step/cond"
  op: "If"
  input: "global_step/VarIsInitializedOp"
  input: "global_step"
  input: "global_step/Initializer/zeros"
  attr {
    key: "Tcond"
    value {
      type: DT_BOOL
    }
  }
  attr {
    key: "Tin"
    value {
      list {
        type: DT_RESOURCE
        type: DT_INT64
      }
    }
  }
  attr {
    key: "Tout"
    value {
      list {
        type: DT_INT64
      }
    }
  }
  attr {
    key: "_lower_using_switch_merge"
    value {
      b: true
    }
  }
  attr {
    key: "_output_shapes"
    value {
      list {
        shape {
        }
      }
    }
  }
  attr {
    key: "else_branch"
    value {
      func {
        name: "global_step_cond_false_8356"
      }
    }
  }
  attr {
    key: "output_shapes"
    value {
      list {
        shape {
        }
      }
    }
  }
  attr {
    key: "then_branch"
    value {
      func {
        name: "global_step_cond_true_8355"
      }
    }
  }
}
node {
  name: "global_step/cond/Identity"
  op: "Identity"
  input: "global_step/cond"
  attr {
    key: "T"
    value {
      type: DT_INT64
    }
  }
  attr {
    key: "_output_shapes"
    value {
      list {
        shape {
        }
      }
    }
  }
}
node {
  name: "global_step/add/y"
  op: "Const"
  attr {
    key: "_output_shapes"
    value {
      list {
        shape {
        }
      }
    }
  }
  attr {
    key: "dtype"
    value {
      type: DT_INT64
    }
  }
  attr {
    key: "value"
    value {
      tensor {
        dtype: DT_INT64
        tensor_shape {
        }
        int64_val: 0
      }
    }
  }
}
node {
  name: "global_step/add"
  op: "AddV2"
  input: "global_step/cond/Identity"
  input: "global_step/add/y"
  attr {
    key: "T"
    value {
      type: DT_INT64
    }
  }
  attr {
    key: "_output_shapes"
    value {
      list {
        shape {
        }
      }
    }
  }
}
node {
  name: "normalize_element/component_0"
  op: "Const"
  device: "/device:CPU:0"
  attr {
    key: "_output_shapes"
    value {
      list {
        shape {
          dim {
            size: 736
          }
        }
      }
    }
  }
  attr {
    key: "dtype"
    value {
      type: DT_STRING
    }
  }
  attr {
    key: "value"
    value {
      tensor {
        dtype: DT_STRING
        tensor_shape {
          dim {
            size: 736
          }
        }
        string_val: "132925"
        string_val: "132921"
        string_val: "132922"
        string_val: "132626"
        string_val: "132564"
        string_val: "132665"
        string_val: "135082"
        string_val: "132869"
        string_val: "132847"
        string_val: "132830"
        string_val: "135070"
        string_val: "132851"
        string_val: "132845"
        string_val: "135108"
        string_val: "132854"
        string_val: "135054"
        string_val: "135071"
        string_val: "132583"
        string_val: "134992"
        string_val: "135021"
        string_val: "134987"
        string_val: "134983"
        string_val: "135001"
        string_val: "132768"
        string_val: "135045"
        string_val: "132847"
        string_val: "132846"
        string_val: "135026"
        string_val: "135032"
        string_val: "135085"
        string_val: "132845"
        string_val: "135038"
        string_val: "135057"
        string_val: "132858"
        string_val: "132869"
        string_val: "132846"
        string_val: "135069"
        string_val: "132851"
        string_val: "132866"
        string_val: "135108"
        string_val: "132854"
        string_val: "135054"
        string_val: "135066"
        string_val: "135041"
        string_val: "135028"
        string_val: "132862"
        string_val: "135042"
        string_val: "135052"
        string_val: "135047"
        string_val: "135064"
        string_val: "132834"
        string_val: "135106"
        string_val: "135032"
        string_val: "135085"
        string_val: "135062"
        string_val: "135079"
        string_val: "132754"
        string_val: "135039"
        string_val: "132856"
        string_val: "135030"
        string_val: "135028"
        string_val: "132572"
        string_val: "135032"
        string_val: "135086"
        string_val: "135085"
        string_val: "135074"
        string_val: "132723"
        string_val: "135058"
        string_val: "135046"
        string_val: "135075"
        string_val: "134999"
        string_val: "135021"
        string_val: "135013"
        string_val: "132767"
        string_val: "132825"
        string_val: "135060"
        string_val: "135027"
        string_val: "135085"
        string_val: "135038"
        string_val: "135066"
        string_val: "132937"
        string_val: "135042"
        string_val: "135052"
        string_val: "135085"
        string_val: "132925"
        string_val: "135062"
        string_val: "132872"
        string_val: "132921"
        string_val: "132875"
        string_val: "132951"
        string_val: "134996"
        string_val: "134999"
        string_val: "135013"
        string_val: "135011"
        string_val: "135001"
        string_val: "134976"
        string_val: "132767"
        string_val: "135019"
        string_val: "135028"
        string_val: "132572"
        string_val: "135045"
        string_val: "135085"
        string_val: "132921"
        string_val: "132951"
        string_val: "135065"
        string_val: "135038"
        string_val: "135030"
        string_val: "135046"
        string_val: "135075"
        string_val: "135053"
        string_val: "135066"
        string_val: "135064"
        string_val: "132834"
        string_val: "135085"
        string_val: "135079"
        string_val: "132872"
        string_val: "135058"
        string_val: "135065"
        string_val: "132754"
        string_val: "135038"
        string_val: "135030"
        string_val: "132732"
        string_val: "135104"
        string_val: "132733"
        string_val: "132560"
        string_val: "132630"
        string_val: "132584"
        string_val: "132825"
        string_val: "135063"
        string_val: "135025"
        string_val: "135060"
        string_val: "135028"
        string_val: "132862"
        string_val: "135042"
        string_val: "135052"
        string_val: "132834"
        string_val: "135032"
        string_val: "135039"
        string_val: "132856"
        string_val: "135030"
        string_val: "134996"
        string_val: "135016"
        string_val: "135109"
        string_val: "135088"
        string_val: "134986"
        string_val: "132767"
        string_val: "135018"
        string_val: "135019"
        string_val: "135027"
        string_val: "135041"
        string_val: "135052"
        string_val: "135106"
        string_val: "135032"
        string_val: "135039"
        string_val: "135073"
        string_val: "135051"
        string_val: "135038"
        string_val: "132856"
        string_val: "132955"
        string_val: "135053"
        string_val: "132958"
        string_val: "132861"
        string_val: "135026"
        string_val: "135086"
        string_val: "135079"
        string_val: "132921"
        string_val: "135058"
        string_val: "135049"
        string_val: "132954"
        string_val: "135034"
        string_val: "132884"
        string_val: "132825"
        string_val: "135063"
        string_val: "135060"
        string_val: "132862"
        string_val: "135052"
        string_val: "132834"
        string_val: "135059"
        string_val: "135079"
        string_val: "135058"
        string_val: "132754"
        string_val: "135038"
        string_val: "135060"
        string_val: "132862"
        string_val: "135052"
        string_val: "132572"
        string_val: "135064"
        string_val: "132834"
        string_val: "135080"
        string_val: "135062"
        string_val: "132951"
        string_val: "135065"
        string_val: "132954"
        string_val: "132740"
        string_val: "132732"
        string_val: "132609"
        string_val: "132560"
        string_val: "132608"
        string_val: "132594"
        string_val: "132584"
        string_val: "134975"
        string_val: "134983"
        string_val: "132768"
        string_val: "135053"
        string_val: "135042"
        string_val: "135047"
        string_val: "135064"
        string_val: "135079"
        string_val: "135058"
        string_val: "135065"
        string_val: "135076"
        string_val: "132830"
        string_val: "132834"
        string_val: "135086"
        string_val: "135062"
        string_val: "135079"
        string_val: "132921"
        string_val: "135038"
        string_val: "132856"
        string_val: "135076"
        string_val: "132583"
        string_val: "135021"
        string_val: "134986"
        string_val: "135001"
        string_val: "132768"
        string_val: "132654"
        string_val: "132561"
        string_val: "132706"
        string_val: "132665"
        string_val: "135109"
        string_val: "134992"
        string_val: "135021"
        string_val: "134983"
        string_val: "135001"
        string_val: "132768"
        string_val: "132663"
        string_val: "132740"
        string_val: "132732"
        string_val: "135104"
        string_val: "132660"
        string_val: "132667"
        string_val: "132560"
        string_val: "132594"
        string_val: "135025"
        string_val: "132572"
        string_val: "135032"
        string_val: "135086"
        string_val: "135085"
        string_val: "135058"
        string_val: "135108"
        string_val: "135038"
        string_val: "135057"
        string_val: "132654"
        string_val: "132561"
        string_val: "132626"
        string_val: "132706"
        string_val: "132825"
        string_val: "132861"
        string_val: "132572"
        string_val: "135080"
        string_val: "135086"
        string_val: "132875"
        string_val: "135035"
        string_val: "132884"
        string_val: "135075"
        string_val: "132825"
        string_val: "132955"
        string_val: "132958"
        string_val: "135041"
        string_val: "132572"
        string_val: "132834"
        string_val: "135048"
        string_val: "135026"
        string_val: "135080"
        string_val: "135086"
        string_val: "132921"
        string_val: "132723"
        string_val: "135058"
        string_val: "132754"
        string_val: "132954"
        string_val: "135034"
        string_val: "135046"
        string_val: "135075"
        string_val: "132825"
        string_val: "135063"
        string_val: "135060"
        string_val: "135041"
        string_val: "135028"
        string_val: "135042"
        string_val: "135052"
        string_val: "135045"
        string_val: "132834"
        string_val: "135106"
        string_val: "135032"
        string_val: "135085"
        string_val: "135058"
        string_val: "132856"
        string_val: "132825"
        string_val: "135050"
        string_val: "135042"
        string_val: "135081"
        string_val: "132885"
        string_val: "135059"
        string_val: "132872"
        string_val: "135055"
        string_val: "135043"
        string_val: "135076"
        string_val: "135086"
        string_val: "135055"
        string_val: "132723"
        string_val: "135035"
        string_val: "135049"
        string_val: "132884"
        string_val: "132825"
        string_val: "135025"
        string_val: "135027"
        string_val: "135028"
        string_val: "135052"
        string_val: "135032"
        string_val: "135085"
        string_val: "135062"
        string_val: "135051"
        string_val: "135038"
        string_val: "132862"
        string_val: "132861"
        string_val: "135045"
        string_val: "135026"
        string_val: "135085"
        string_val: "132723"
        string_val: "135058"
        string_val: "135035"
        string_val: "135072"
        string_val: "135030"
        string_val: "132861"
        string_val: "132572"
        string_val: "135044"
        string_val: "135026"
        string_val: "135085"
        string_val: "132921"
        string_val: "135058"
        string_val: "132951"
        string_val: "135065"
        string_val: "132825"
        string_val: "135025"
        string_val: "135028"
        string_val: "132572"
        string_val: "135047"
        string_val: "135048"
        string_val: "135106"
        string_val: "132754"
        string_val: "135051"
        string_val: "135075"
        string_val: "135011"
        string_val: "134987"
        string_val: "134976"
        string_val: "135066"
        string_val: "135050"
        string_val: "135082"
        string_val: "135042"
        string_val: "135081"
        string_val: "132830"
        string_val: "135070"
        string_val: "135069"
        string_val: "135043"
        string_val: "135076"
        string_val: "135057"
        string_val: "132825"
        string_val: "135060"
        string_val: "132862"
        string_val: "132861"
        string_val: "132885"
        string_val: "135032"
        string_val: "135085"
        string_val: "135079"
        string_val: "132921"
        string_val: "135038"
        string_val: "132856"
        string_val: "135046"
        string_val: "135027"
        string_val: "135042"
        string_val: "135039"
        string_val: "135073"
        string_val: "135038"
        string_val: "132613"
        string_val: "132663"
        string_val: "132740"
        string_val: "132732"
        string_val: "135104"
        string_val: "132733"
        string_val: "132630"
        string_val: "135000"
        string_val: "134996"
        string_val: "135021"
        string_val: "135001"
        string_val: "134976"
        string_val: "132768"
        string_val: "132740"
        string_val: "132668"
        string_val: "132715"
        string_val: "135060"
        string_val: "135042"
        string_val: "132834"
        string_val: "135032"
        string_val: "135085"
        string_val: "135079"
        string_val: "132872"
        string_val: "135058"
        string_val: "135038"
        string_val: "132856"
        string_val: "132825"
        string_val: "135025"
        string_val: "135042"
        string_val: "135052"
        string_val: "135045"
        string_val: "135064"
        string_val: "132834"
        string_val: "135059"
        string_val: "135085"
        string_val: "135079"
        string_val: "135065"
        string_val: "132754"
        string_val: "132825"
        string_val: "135041"
        string_val: "132937"
        string_val: "132862"
        string_val: "132755"
        string_val: "135064"
        string_val: "135059"
        string_val: "135080"
        string_val: "135079"
        string_val: "132723"
        string_val: "132754"
        string_val: "132922"
        string_val: "135075"
        string_val: "132875"
        string_val: "132877"
        string_val: "132884"
        string_val: "135060"
        string_val: "135041"
        string_val: "135052"
        string_val: "135081"
        string_val: "132885"
        string_val: "132834"
        string_val: "135106"
        string_val: "134996"
        string_val: "135109"
        string_val: "135088"
        string_val: "132768"
        string_val: "132870"
        string_val: "132869"
        string_val: "132851"
        string_val: "132866"
        string_val: "132845"
        string_val: "135054"
        string_val: "135071"
        string_val: "132877"
        string_val: "132861"
        string_val: "135064"
        string_val: "135086"
        string_val: "132872"
        string_val: "135055"
        string_val: "132723"
        string_val: "135058"
        string_val: "135035"
        string_val: "135072"
        string_val: "135034"
        string_val: "135025"
        string_val: "132955"
        string_val: "132958"
        string_val: "135064"
        string_val: "135026"
        string_val: "135086"
        string_val: "135055"
        string_val: "132723"
        string_val: "132875"
        string_val: "135072"
        string_val: "135075"
        string_val: "134975"
        string_val: "134996"
        string_val: "135021"
        string_val: "134987"
        string_val: "132564"
        string_val: "132715"
        string_val: "132717"
        string_val: "134999"
        string_val: "135013"
        string_val: "135011"
        string_val: "132767"
        string_val: "135019"
        string_val: "135082"
        string_val: "132830"
        string_val: "135070"
        string_val: "135069"
        string_val: "135108"
        string_val: "135054"
        string_val: "135071"
        string_val: "135057"
        string_val: "135053"
        string_val: "135066"
        string_val: "135050"
        string_val: "132885"
        string_val: "135062"
        string_val: "132872"
        string_val: "135055"
        string_val: "135058"
        string_val: "135043"
        string_val: "135076"
        string_val: "135053"
        string_val: "135060"
        string_val: "135064"
        string_val: "132925"
        string_val: "135079"
        string_val: "132872"
        string_val: "132921"
        string_val: "135058"
        string_val: "132875"
        string_val: "132951"
        string_val: "132954"
        string_val: "135063"
        string_val: "135025"
        string_val: "135060"
        string_val: "135052"
        string_val: "135081"
        string_val: "135045"
        string_val: "135040"
        string_val: "135032"
        string_val: "135062"
        string_val: "135073"
        string_val: "135051"
        string_val: "135038"
        string_val: "135033"
        string_val: "135057"
        string_val: "134996"
        string_val: "134986"
        string_val: "134983"
        string_val: "135001"
        string_val: "135018"
        string_val: "135032"
        string_val: "135085"
        string_val: "135079"
        string_val: "132854"
        string_val: "135038"
        string_val: "132856"
        string_val: "135057"
        string_val: "135046"
        string_val: "132870"
        string_val: "135082"
        string_val: "132858"
        string_val: "132869"
        string_val: "132847"
        string_val: "132851"
        string_val: "132845"
        string_val: "135108"
        string_val: "132854"
        string_val: "135071"
        string_val: "132877"
        string_val: "135066"
        string_val: "135060"
        string_val: "132862"
        string_val: "135042"
        string_val: "135052"
        string_val: "135045"
        string_val: "132834"
        string_val: "135106"
        string_val: "135032"
        string_val: "135085"
        string_val: "135062"
        string_val: "135051"
        string_val: "132856"
        string_val: "132654"
        string_val: "132561"
        string_val: "132626"
        string_val: "132706"
        string_val: "132665"
        string_val: "132825"
        string_val: "135063"
        string_val: "135028"
        string_val: "135042"
        string_val: "135032"
        string_val: "135085"
        string_val: "132872"
        string_val: "135058"
        string_val: "135038"
        string_val: "132856"
        string_val: "132755"
        string_val: "135048"
        string_val: "135000"
        string_val: "135016"
        string_val: "132825"
        string_val: "135041"
        string_val: "135041"
        string_val: "135082"
        string_val: "135081"
        string_val: "132825"
        string_val: "135053"
        string_val: "135000"
        string_val: "134996"
        string_val: "135063"
        string_val: "135066"
        string_val: "135060"
        string_val: "135060"
        string_val: "132572"
        string_val: "135085"
        string_val: "134996"
        string_val: "132613"
        string_val: "132740"
        string_val: "135063"
        string_val: "135060"
        string_val: "132825"
        string_val: "132572"
        string_val: "135048"
        string_val: "132862"
        string_val: "132825"
        string_val: "135063"
        string_val: "135025"
        string_val: "132663"
        string_val: "135066"
        string_val: "135050"
        string_val: "132740"
        string_val: "132613"
        string_val: "132663"
        string_val: "132660"
        string_val: "132733"
        string_val: "132958"
        string_val: "135028"
        string_val: "132862"
        string_val: "135000"
        string_val: "135060"
        string_val: "132870"
        string_val: "132825"
        string_val: "132862"
        string_val: "135064"
        string_val: "132955"
        string_val: "132958"
        string_val: "134999"
        string_val: "135066"
        string_val: "135050"
        string_val: "135041"
        string_val: "132825"
        string_val: "135027"
        string_val: "135028"
        string_val: "132825"
        string_val: "135025"
        string_val: "132825"
        string_val: "135053"
        string_val: "132755"
        string_val: "135025"
        string_val: "135060"
        string_val: "135041"
        string_val: "132663"
        string_val: "132740"
        string_val: "135066"
        string_val: "135060"
        string_val: "135042"
        string_val: "132740"
        string_val: "132825"
        string_val: "132958"
        string_val: "135028"
        string_val: "132583"
        string_val: "132870"
        string_val: "135082"
        string_val: "132825"
        string_val: "135060"
        string_val: "135027"
        string_val: "135041"
        string_val: "132825"
        string_val: "135025"
        string_val: "135041"
        string_val: "135025"
        string_val: "132572"
        string_val: "132825"
        string_val: "135066"
        string_val: "135050"
        string_val: "134975"
        string_val: "134992"
        string_val: "135052"
        string_val: "132830"
        string_val: "135025"
        string_val: "135066"
        string_val: "135082"
        string_val: "132613"
        string_val: "132663"
        string_val: "135082"
        string_val: "132830"
        string_val: "135082"
        string_val: "132858"
        string_val: "135050"
        string_val: "135081"
        string_val: "135070"
        string_val: "132613"
        string_val: "134986"
        string_val: "132825"
        string_val: "135060"
        string_val: "135041"
        string_val: "135025"
        string_val: "132862"
        string_val: "135052"
        string_val: "132825"
        string_val: "132862"
        string_val: "135042"
        string_val: "132755"
        string_val: "132825"
        string_val: "132937"
        string_val: "132862"
        string_val: "132654"
        string_val: "132862"
        string_val: "132572"
        string_val: "135047"
        string_val: "132825"
        string_val: "132572"
        string_val: "135047"
        string_val: "135064"
        string_val: "135041"
        string_val: "135052"
        string_val: "132830"
        string_val: "132613"
        string_val: "132870"
        string_val: "132825"
        string_val: "132955"
        string_val: "135028"
        string_val: "132660"
        string_val: "132825"
        string_val: "135041"
        string_val: "132862"
        string_val: "134999"
        string_val: "132572"
        string_val: "132755"
        string_val: "135028"
        string_val: "135064"
        string_val: "132834"
        string_val: "135026"
        string_val: "135104"
        string_val: "134996"
        string_val: "132825"
        string_val: "135025"
        string_val: "135060"
      }
    }
  }
}
node {
  name: "normalize_element/component_1"
  op: "Const"
  device: "/device:CPU:0"
  attr {
    key: "_output_shapes"
    value {
      list {
        shape {
          dim {
            size: 736
          }
        }
      }
    }
  }
  attr {
    key: "dtype"
    value {
      type: DT_FLOAT
    }
  }
  attr {
    key: "value"
    value {
      tensor {
        dtype: DT_FLOAT
        tensor_shape {
          dim {
            size: 736
          }
        }
        tensor_content: "…"
      }
    }
  }
}
node {
  name: "normalize_element/component_2"
  op: "Const"
  device: "/device:CPU:0"
  attr {
    key: "_output_shapes"
    value {
      list {
        shape {
          dim {
            size: 736
          }
        }
      }
    }
  }
  attr {
    key: "dtype"
    value {
      type: DT_FLOAT
    }
  }
  attr {
    key: "value"
    value {
      tensor {
        dtype: DT_FLOAT
        tensor_shape {
          dim {
            size: 736
          }
        }
        tensor_content: "…"
      }
    }
  }
}
node {
  name: "normalize_element/component_3"
  op: "Const"
  device: "/device:CPU:0"
  attr {
    key: "_output_shapes"
    value {
      list {
        shape {
          dim {
            size: 736
          }
        }
      }
    }
  }
  attr {
    key: "dtype"
    value {
      type: DT_STRING
    }
  }
  attr {
    key: "value"
    value {
      tensor {
        dtype: DT_STRING
        tensor_shape {
          dim {
            size: 736
          }
        }
        string_val: "medium"
        string_val: "low"
        string_val: "medium"
        string_val: "medium"
        string_val: "low"
        string_val: "low"
        string_val: "medium"
        string_val: "medium"
        string_val: "low"
        string_val: "low"
        string_val: "medium"
        string_val: "low"
        string_val: "medium"
        string_val: "low"
        string_val: "medium"
        string_val: "high"
        string_val: "medium"
        string_val: "low"
        string_val: "high"
        string_val: "low"
        string_val: "medium"
        string_val: "high"
        string_val: "medium"
        string_val: "medium"
        string_val: "high"
        string_val: "low"
        string_val: "low"
        string_val: "high"
        string_val: "medium"
        string_val: "medium"
        string_val: "medium"
        string_val: "medium"
        string_val: "medium"
        string_val: "low"
        string_val: "medium"
        string_val: "low"
        string_val: "low"
        string_val: "low"
        string_val: "medium"
        string_val: "low"
        string_val: "medium"
        string_val: "high"
        string_val: "high"
        string_val: "medium"
        string_val: "medium"
        string_val: "high"
        string_val: "medium"
        string_val: "high"
        string_val: "high"
        string_val: "high"
        string_val: "low"
        string_val: "medium"
        string_val: "medium"
        string_val: "medium"
        string_val: "medium"
        string_val: "high"
        string_val: "medium"
        string_val: "low"
        string_val: "low"
        string_val: "medium"
        string_val: "medium"
        string_val: "low"
        string_val: "medium"
        string_val: "medium"
        string_val: "medium"
        string_val: "high"
        string_val: "medium"
        string_val: "medium"
        string_val: "medium"
        string_val: "medium"
        string_val: "medium"
        string_val: "low"
        string_val: "low"
        string_val: "medium"
        string_val: "low"
        string_val: "medium"
        string_val: "medium"
        string_val: "medium"
        string_val: "medium"
        string_val: "high"
        string_val: "low"
        string_val: "medium"
        string_val: "high"
        string_val: "medium"
        string_val: "medium"
        string_val: "medium"
        string_val: "medium"
        string_val: "low"
        string_val: "high"
        string_val: "low"
        string_val: "medium"
        string_val: "medium"
        string_val: "low"
        string_val: "medium"
        string_val: "medium"
        string_val: "low"
        string_val: "medium"
        string_val: "low"
        string_val: "medium"
        string_val: "low"
        string_val: "high"
        string_val: "medium"
        string_val: "low"
        string_val: "low"
        string_val: "high"
        string_val: "medium"
        string_val: "medium"
        string_val: "medium"
        string_val: "medium"
        string_val: "high"
        string_val: "high"
        string_val: "high"
        string_val: "low"
        string_val: "medium"
        string_val: "high"
        string_val: "medium"
        string_val: "medium"
        string_val: "high"
        string_val: "medium"
        string_val: "medium"
        string_val: "medium"
        string_val: "low"
        string_val: "medium"
        string_val: "medium"
        string_val: "low"
        string_val: "low"
        string_val: "medium"
        string_val: "low"
        string_val: "medium"
        string_val: "medium"
        string_val: "medium"
        string_val: "medium"
        string_val: "high"
        string_val: "medium"
        string_val: "high"
        string_val: "low"
        string_val: "medium"
        string_val: "low"
        string_val: "low"
        string_val: "medium"
        string_val: "medium"
        string_val: "medium"
        string_val: "medium"
        string_val: "low"
        string_val: "high"
        string_val: "medium"
        string_val: "medium"
        string_val: "low"
        string_val: "medium"
        string_val: "medium"
        string_val: "high"
        string_val: "medium"
        string_val: "medium"
        string_val: "low"
        string_val: "high"
        string_val: "low"
        string_val: "medium"
        string_val: "low"
        string_val: "low"
        string_val: "high"
        string_val: "low"
        string_val: "medium"
        string_val: "high"
        string_val: "medium"
        string_val: "high"
        string_val: "low"
        string_val: "medium"
        string_val: "medium"
        string_val: "medium"
        string_val: "medium"
        string_val: "low"
        string_val: "low"
        string_val: "medium"
        string_val: "medium"
        string_val: "high"
        string_val: "high"
        string_val: "low"
        string_val: "medium"
        string_val: "high"
        string_val: "medium"
        string_val: "medium"
        string_val: "medium"
        string_val: "medium"
        string_val: "high"
        string_val: "high"
        string_val: "low"
        string_val: "high"
        string_val: "low"
        string_val: "high"
        string_val: "medium"
        string_val: "low"
        string_val: "high"
        string_val: "medium"
        string_val: "low"
        string_val: "low"
        string_val: "low"
        string_val: "low"
        string_val: "low"
        string_val: "low"
        string_val: "medium"
        string_val: "high"
        string_val: "high"
        string_val: "medium"
        string_val: "high"
        string_val: "medium"
        string_val: "high"
        string_val: "high"
        string_val: "high"
        string_val: "medium"
        string_val: "high"
        string_val: "high"
        string_val: "low"
        string_val: "low"
        string_val: "medium"
        string_val: "medium"
        string_val: "high"
        string_val: "low"
        string_val: "medium"
        string_val: "low"
        string_val: "high"
        string_val: "low"
        string_val: "low"
        string_val: "high"
        string_val: "medium"
        string_val: "medium"
        string_val: "low"
        string_val: "low"
        string_val: "medium"
        string_val: "low"
        string_val: "medium"
        string_val: "high"
        string_val: "low"
        string_val: "high"
        string_val: "medium"
        string_val: "medium"
        string_val: "low"
        string_val: "low"
        string_val: "low"
        string_val: "medium"
        string_val: "low"
        string_val: "low"
        string_val: "low"
        string_val: "low"
        string_val: "medium"
        string_val: "low"
        string_val: "medium"
        string_val: "medium"
        string_val: "medium"
        string_val: "medium"
        string_val: "low"
        string_val: "medium"
        string_val: "medium"
        string_val: "low"
        string_val: "low"
        string_val: "medium"
        string_val: "medium"
        string_val: "low"
        string_val: "medium"
        string_val: "low"
        string_val: "high"
        string_val: "medium"
        string_val: "high"
        string_val: "high"
        string_val: "low"
        string_val: "medium"
        string_val: "low"
        string_val: "low"
        string_val: "low"
        string_val: "medium"
        string_val: "low"
        string_val: "low"
        string_val: "high"
        string_val: "high"
        string_val: "high"
        string_val: "medium"
        string_val: "low"
        string_val: "medium"
        string_val: "medium"
        string_val: "medium"
        string_val: "medium"
        string_val: "medium"
        string_val: "medium"
        string_val: "medium"
        string_val: "low"
        string_val: "medium"
        string_val: "medium"
        string_val: "medium"
        string_val: "medium"
        string_val: "medium"
        string_val: "high"
        string_val: "high"
        string_val: "low"
        string_val: "medium"
        string_val: "medium"
        string_val: "medium"
        string_val: "medium"
        string_val: "low"
        string_val: "low"
        string_val: "high"
        string_val: "medium"
        string_val: "medium"
        string_val: "low"
        string_val: "medium"
        string_val: "medium"
        string_val: "high"
        string_val: "medium"
        string_val: "high"
        string_val: "medium"
        string_val: "high"
        string_val: "medium"
        string_val: "high"
        string_val: "medium"
        string_val: "low"
        string_val: "low"
        string_val: "medium"
        string_val: "medium"
        string_val: "medium"
        string_val: "high"
        string_val: "medium"
        string_val: "medium"
        string_val: "medium"
        string_val: "low"
        string_val: "medium"
        string_val: "high"
        string_val: "medium"
        string_val: "high"
        string_val: "high"
        string_val: "medium"
        string_val: "medium"
        string_val: "medium"
        string_val: "high"
        string_val: "medium"
        string_val: "medium"
        string_val: "medium"
        string_val: "low"
        string_val: "medium"
        string_val: "high"
        string_val: "medium"
        string_val: "low"
        string_val: "medium"
        string_val: "low"
        string_val: "high"
        string_val: "low"
        string_val: "medium"
        string_val: "medium"
        string_val: "low"
        string_val: "high"
        string_val: "high"
        string_val: "medium"
        string_val: "medium"
        string_val: "low"
        string_val: "medium"
        string_val: "medium"
        string_val: "medium"
        string_val: "low"
        string_val: "high"
        string_val: "high"
        string_val: "medium"
        string_val: "medium"
        string_val: "medium"
        string_val: "low"
        string_val: "medium"
        string_val: "low"
        string_val: "medium"
        string_val: "high"
        string_val: "medium"
        string_val: "low"
        string_val: "medium"
        string_val: "high"
        string_val: "medium"
        string_val: "low"
        string_val: "medium"
        string_val: "medium"
        string_val: "high"
        string_val: "low"
        string_val: "medium"
        string_val: "low"
        string_val: "medium"
        string_val: "medium"
        string_val: "medium"
        string_val: "low"
        string_val: "high"
        string_val: "medium"
        string_val: "medium"
        string_val: "low"
        string_val: "low"
        string_val: "low"
        string_val: "medium"
        string_val: "medium"
        string_val: "low"
        string_val: "medium"
        string_val: "medium"
        string_val: "low"
        string_val: "medium"
        string_val: "low"
        string_val: "medium"
        string_val: "low"
        string_val: "low"
        string_val: "low"
        string_val: "medium"
        string_val: "medium"
        string_val: "low"
        string_val: "medium"
        string_val: "medium"
        string_val: "high"
        string_val: "medium"
        string_val: "medium"
        string_val: "medium"
        string_val: "low"
        string_val: "low"
        string_val: "medium"
        string_val: "medium"
        string_val: "high"
        string_val: "high"
        string_val: "high"
        string_val: "low"
        string_val: "medium"
        string_val: "medium"
        string_val: "high"
        string_val: "high"
        string_val: "medium"
        string_val: "low"
        string_val: "medium"
        string_val: "low"
        string_val: "high"
        string_val: "medium"
        string_val: "high"
        string_val: "medium"
        string_val: "high"
        string_val: "high"
        string_val: "medium"
        string_val: "medium"
        string_val: "medium"
        string_val: "medium"
        string_val: "high"
        string_val: "low"
        string_val: "low"
        string_val: "medium"
        string_val: "medium"
        string_val: "high"
        string_val: "medium"
        string_val: "low"
        string_val: "low"
        string_val: "medium"
        string_val: "medium"
        string_val: "medium"
        string_val: "low"
        string_val: "medium"
        string_val: "low"
        string_val: "medium"
        string_val: "low"
        string_val: "medium"
        string_val: "medium"
        string_val: "high"
        string_val: "medium"
        string_val: "low"
        string_val: "medium"
        string_val: "high"
        string_val: "medium"
        string_val: "medium"
        string_val: "high"
        string_val: "medium"
        string_val: "medium"
        string_val: "high"
        string_val: "medium"
        string_val: "medium"
        string_val: "medium"
        string_val: "low"
        string_val: "low"
        string_val: "high"
        string_val: "high"
        string_val: "medium"
        string_val: "high"
        string_val: "medium"
        string_val: "high"
        string_val: "medium"
        string_val: "medium"
        string_val: "high"
        string_val: "medium"
        string_val: "low"
        string_val: "medium"
        string_val: "low"
        string_val: "low"
        string_val: "medium"
        string_val: "medium"
        string_val: "low"
        string_val: "medium"
        string_val: "medium"
        string_val: "low"
        string_val: "medium"
        string_val: "low"
        string_val: "medium"
        string_val: "low"
        string_val: "low"
        string_val: "high"
        string_val: "medium"
        string_val: "medium"
        string_val: "high"
        string_val: "high"
        string_val: "high"
        string_val: "low"
        string_val: "medium"
        string_val: "medium"
        string_val: "high"
        string_val: "medium"
        string_val: "medium"
        string_val: "high"
        string_val: "high"
        string_val: "medium"
        string_val: "high"
        string_val: "medium"
        string_val: "high"
        string_val: "medium"
        string_val: "low"
        string_val: "medium"
        string_val: "high"
        string_val: "low"
        string_val: "medium"
        string_val: "medium"
        string_val: "medium"
        string_val: "medium"
        string_val: "high"
        string_val: "medium"
        string_val: "high"
        string_val: "high"
        string_val: "medium"
        string_val: "medium"
        string_val: "high"
        string_val: "low"
        string_val: "medium"
        string_val: "medium"
        string_val: "medium"
        string_val: "medium"
        string_val: "high"
        string_val: "high"
        string_val: "medium"
        string_val: "medium"
        string_val: "medium"
        string_val: "medium"
        string_val: "high"
        string_val: "medium"
        string_val: "medium"
        string_val: "low"
        string_val: "medium"
        string_val: "medium"
        string_val: "low"
        string_val: "medium"
        string_val: "low"
        string_val: "medium"
        string_val: "low"
        string_val: "low"
        string_val: "medium"
        string_val: "low"
        string_val: "medium"
        string_val: "medium"
        string_val: "low"
        string_val: "high"
        string_val: "medium"
        string_val: "high"
        string_val: "medium"
        string_val: "high"
        string_val: "high"
        string_val: "low"
        string_val: "medium"
        string_val: "medium"
        string_val: "medium"
        string_val: "medium"
        string_val: "low"
        string_val: "low"
        string_val: "low"
        string_val: "low"
        string_val: "medium"
        string_val: "medium"
        string_val: "low"
        string_val: "low"
        string_val: "medium"
        string_val: "medium"
        string_val: "medium"
        string_val: "medium"
        string_val: "medium"
        string_val: "medium"
        string_val: "medium"
        string_val: "medium"
        string_val: "low"
        string_val: "medium"
        string_val: "high"
        string_val: "medium"
        string_val: "medium"
        string_val: "low"
        string_val: "medium"
        string_val: "medium"
        string_val: "medium"
        string_val: "medium"
        string_val: "low"
        string_val: "high"
        string_val: "medium"
        string_val: "medium"
        string_val: "medium"
        string_val: "high"
        string_val: "medium"
        string_val: "medium"
        string_val: "low"
        string_val: "medium"
        string_val: "medium"
        string_val: "medium"
        string_val: "low"
        string_val: "medium"
        string_val: "medium"
        string_val: "low"
        string_val: "low"
        string_val: "high"
        string_val: "high"
        string_val: "low"
        string_val: "medium"
        string_val: "medium"
        string_val: "low"
        string_val: "high"
        string_val: "high"
        string_val: "low"
        string_val: "medium"
        string_val: "low"
        string_val: "low"
        string_val: "medium"
        string_val: "low"
        string_val: "medium"
        string_val: "high"
        string_val: "medium"
        string_val: "medium"
        string_val: "low"
        string_val: "low"
        string_val: "high"
        string_val: "high"
        string_val: "low"
        string_val: "low"
        string_val: "medium"
        string_val: "high"
        string_val: "high"
        string_val: "medium"
        string_val: "low"
        string_val: "medium"
        string_val: "medium"
        string_val: "low"
        string_val: "medium"
        string_val: "low"
        string_val: "high"
        string_val: "medium"
        string_val: "medium"
        string_val: "medium"
        string_val: "medium"
        string_val: "low"
        string_val: "low"
        string_val: "high"
        string_val: "medium"
        string_val: "medium"
        string_val: "low"
        string_val: "low"
        string_val: "low"
        string_val: "medium"
        string_val: "low"
        string_val: "low"
        string_val: "medium"
        string_val: "low"
        string_val: "medium"
        string_val: "medium"
        string_val: "medium"
        string_val: "low"
        string_val: "medium"
        string_val: "medium"
        string_val: "medium"
        string_val: "low"
        string_val: "low"
        string_val: "high"
        string_val: "high"
        string_val: "high"
        string_val: "high"
        string_val: "high"
        string_val: "low"
        string_val: "medium"
        string_val: "high"
        string_val: "medium"
        string_val: "medium"
        string_val: "low"
        string_val: "medium"
        string_val: "low"
        string_val: "medium"
        string_val: "low"
        string_val: "high"
        string_val: "medium"
        string_val: "medium"
        string_val: "medium"
        string_val: "high"
        string_val: "low"
        string_val: "medium"
        string_val: "medium"
        string_val: "medium"
        string_val: "high"
        string_val: "high"
        string_val: "low"
        string_val: "high"
        string_val: "medium"
        string_val: "medium"
        string_val: "low"
        string_val: "low"
        string_val: "high"
        string_val: "low"
        string_val: "high"
        string_val: "low"
        string_val: "high"
        string_val: "low"
        string_val: "low"
        string_val: "high"
        string_val: "high"
        string_val: "medium"
        string_val: "high"
        string_val: "low"
        string_val: "medium"
        string_val: "low"
        string_val: "low"
        string_val: "low"
        string_val: "medium"
        string_val: "low"
        string_val: "low"
        string_val: "medium"
        string_val: "high"
        string_val: "medium"
        string_val: "low"
        string_val: "medium"
        string_val: "medium"
        string_val: "high"
        string_val: "low"
        string_val: "high"
        string_val: "medium"
        string_val: "medium"
        string_val: "low"
        string_val: "medium"
        string_val: "medium"
      }
    }
  }
}
node {
  name: "normalize_element/component_4"
  op: "Const"
  device: "/device:CPU:0"
  attr {
    key: "_output_shapes"
    value {
      list {
        shape {
          dim {
            size: 736
          }
        }
      }
    }
  }
  attr {
    key: "dtype"
    value {
      type: DT_STRING
    }
  }
  attr {
    key: "value"
    value {
      tensor {
        dtype: DT_STRING
        tensor_shape {
          dim {
            size: 736
          }
        }
        string_val: "U1138"
        string_val: "U1138"
        string_val: "U1138"
        string_val: "U1039"
        string_val: "U1039"
        string_val: "U1039"
        string_val: "U1037"
        string_val: "U1037"
        string_val: "U1037"
        string_val: "U1037"
        string_val: "U1037"
        string_val: "U1037"
        string_val: "U1037"
        string_val: "U1037"
        string_val: "U1037"
        string_val: "U1037"
        string_val: "U1037"
        string_val: "U1118"
        string_val: "U1118"
        string_val: "U1118"
        string_val: "U1118"
        string_val: "U1118"
        string_val: "U1118"
        string_val: "U1118"
        string_val: "U1120"
        string_val: "U1120"
        string_val: "U1120"
        string_val: "U1120"
        string_val: "U1120"
        string_val: "U1120"
        string_val: "U1120"
        string_val: "U1120"
        string_val: "U1120"
        string_val: "U1008"
        string_val: "U1008"
        string_val: "U1008"
        string_val: "U1008"
        string_val: "U1008"
        string_val: "U1008"
        string_val: "U1008"
        string_val: "U1008"
        string_val: "U1008"
        string_val: "U1106"
        string_val: "U1106"
        string_val: "U1106"
        string_val: "U1106"
        string_val: "U1106"
        string_val: "U1106"
        string_val: "U1106"
        string_val: "U1106"
        string_val: "U1106"
        string_val: "U1106"
        string_val: "U1106"
        string_val: "U1106"
        string_val: "U1106"
        string_val: "U1106"
        string_val: "U1106"
        string_val: "U1106"
        string_val: "U1106"
        string_val: "U1106"
        string_val: "U1108"
        string_val: "U1108"
        string_val: "U1108"
        string_val: "U1108"
        string_val: "U1108"
        string_val: "U1108"
        string_val: "U1108"
        string_val: "U1108"
        string_val: "U1108"
        string_val: "U1108"
        string_val: "U1110"
        string_val: "U1110"
        string_val: "U1110"
        string_val: "U1110"
        string_val: "U1077"
        string_val: "U1077"
        string_val: "U1077"
        string_val: "U1077"
        string_val: "U1077"
        string_val: "U1027"
        string_val: "U1027"
        string_val: "U1027"
        string_val: "U1027"
        string_val: "U1027"
        string_val: "U1027"
        string_val: "U1027"
        string_val: "U1027"
        string_val: "U1027"
        string_val: "U1027"
        string_val: "U1027"
        string_val: "U1093"
        string_val: "U1093"
        string_val: "U1093"
        string_val: "U1093"
        string_val: "U1093"
        string_val: "U1093"
        string_val: "U1093"
        string_val: "U1093"
        string_val: "U1033"
        string_val: "U1033"
        string_val: "U1033"
        string_val: "U1033"
        string_val: "U1033"
        string_val: "U1033"
        string_val: "U1033"
        string_val: "U1033"
        string_val: "U1033"
        string_val: "U1033"
        string_val: "U1033"
        string_val: "U1122"
        string_val: "U1122"
        string_val: "U1122"
        string_val: "U1122"
        string_val: "U1122"
        string_val: "U1122"
        string_val: "U1122"
        string_val: "U1122"
        string_val: "U1122"
        string_val: "U1122"
        string_val: "U1122"
        string_val: "U1122"
        string_val: "U1067"
        string_val: "U1067"
        string_val: "U1067"
        string_val: "U1067"
        string_val: "U1067"
        string_val: "U1067"
        string_val: "U1071"
        string_val: "U1071"
        string_val: "U1071"
        string_val: "U1071"
        string_val: "U1071"
        string_val: "U1071"
        string_val: "U1071"
        string_val: "U1071"
        string_val: "U1071"
        string_val: "U1071"
        string_val: "U1071"
        string_val: "U1071"
        string_val: "U1071"
        string_val: "U1030"
        string_val: "U1030"
        string_val: "U1030"
        string_val: "U1030"
        string_val: "U1030"
        string_val: "U1030"
        string_val: "U1030"
        string_val: "U1030"
        string_val: "U1101"
        string_val: "U1101"
        string_val: "U1101"
        string_val: "U1101"
        string_val: "U1101"
        string_val: "U1101"
        string_val: "U1101"
        string_val: "U1101"
        string_val: "U1101"
        string_val: "U1101"
        string_val: "U1097"
        string_val: "U1097"
        string_val: "U1097"
        string_val: "U1097"
        string_val: "U1097"
        string_val: "U1097"
        string_val: "U1097"
        string_val: "U1097"
        string_val: "U1097"
        string_val: "U1097"
        string_val: "U1097"
        string_val: "U1097"
        string_val: "U1097"
        string_val: "U1009"
        string_val: "U1009"
        string_val: "U1009"
        string_val: "U1009"
        string_val: "U1009"
        string_val: "U1009"
        string_val: "U1009"
        string_val: "U1009"
        string_val: "U1009"
        string_val: "U1009"
        string_val: "U1009"
        string_val: "U1073"
        string_val: "U1073"
        string_val: "U1073"
        string_val: "U1073"
        string_val: "U1073"
        string_val: "U1073"
        string_val: "U1073"
        string_val: "U1073"
        string_val: "U1073"
        string_val: "U1073"
        string_val: "U1073"
        string_val: "U1050"
        string_val: "U1050"
        string_val: "U1050"
        string_val: "U1050"
        string_val: "U1050"
        string_val: "U1050"
        string_val: "U1050"
        string_val: "U1017"
        string_val: "U1017"
        string_val: "U1017"
        string_val: "U1010"
        string_val: "U1010"
        string_val: "U1010"
        string_val: "U1010"
        string_val: "U1010"
        string_val: "U1010"
        string_val: "U1010"
        string_val: "U1010"
        string_val: "U1019"
        string_val: "U1019"
        string_val: "U1019"
        string_val: "U1019"
        string_val: "U1019"
        string_val: "U1019"
        string_val: "U1019"
        string_val: "U1019"
        string_val: "U1019"
        string_val: "U1119"
        string_val: "U1119"
        string_val: "U1119"
        string_val: "U1119"
        string_val: "U1119"
        string_val: "U1129"
        string_val: "U1129"
        string_val: "U1129"
        string_val: "U1129"
        string_val: "U1041"
        string_val: "U1041"
        string_val: "U1041"
        string_val: "U1041"
        string_val: "U1041"
        string_val: "U1041"
        string_val: "U1087"
        string_val: "U1087"
        string_val: "U1087"
        string_val: "U1087"
        string_val: "U1087"
        string_val: "U1087"
        string_val: "U1087"
        string_val: "U1087"
        string_val: "U1007"
        string_val: "U1007"
        string_val: "U1007"
        string_val: "U1007"
        string_val: "U1007"
        string_val: "U1007"
        string_val: "U1007"
        string_val: "U1007"
        string_val: "U1007"
        string_val: "U1130"
        string_val: "U1130"
        string_val: "U1130"
        string_val: "U1130"
        string_val: "U1091"
        string_val: "U1091"
        string_val: "U1091"
        string_val: "U1091"
        string_val: "U1091"
        string_val: "U1091"
        string_val: "U1091"
        string_val: "U1091"
        string_val: "U1091"
        string_val: "U1061"
        string_val: "U1061"
        string_val: "U1061"
        string_val: "U1061"
        string_val: "U1061"
        string_val: "U1061"
        string_val: "U1061"
        string_val: "U1061"
        string_val: "U1061"
        string_val: "U1061"
        string_val: "U1061"
        string_val: "U1061"
        string_val: "U1061"
        string_val: "U1061"
        string_val: "U1061"
        string_val: "U1061"
        string_val: "U1061"
        string_val: "U1061"
        string_val: "U1135"
        string_val: "U1135"
        string_val: "U1135"
        string_val: "U1135"
        string_val: "U1135"
        string_val: "U1135"
        string_val: "U1135"
        string_val: "U1135"
        string_val: "U1135"
        string_val: "U1135"
        string_val: "U1135"
        string_val: "U1135"
        string_val: "U1135"
        string_val: "U1135"
        string_val: "U1085"
        string_val: "U1085"
        string_val: "U1085"
        string_val: "U1085"
        string_val: "U1085"
        string_val: "U1085"
        string_val: "U1085"
        string_val: "U1085"
        string_val: "U1085"
        string_val: "U1085"
        string_val: "U1034"
        string_val: "U1034"
        string_val: "U1034"
        string_val: "U1034"
        string_val: "U1034"
        string_val: "U1034"
        string_val: "U1132"
        string_val: "U1132"
        string_val: "U1132"
        string_val: "U1132"
        string_val: "U1132"
        string_val: "U1132"
        string_val: "U1132"
        string_val: "U1132"
        string_val: "U1132"
        string_val: "U1132"
        string_val: "U1084"
        string_val: "U1084"
        string_val: "U1084"
        string_val: "U1084"
        string_val: "U1084"
        string_val: "U1084"
        string_val: "U1084"
        string_val: "U1084"
        string_val: "U1084"
        string_val: "U1084"
        string_val: "U1046"
        string_val: "U1046"
        string_val: "U1046"
        string_val: "U1046"
        string_val: "U1046"
        string_val: "U1046"
        string_val: "U1046"
        string_val: "U1046"
        string_val: "U1046"
        string_val: "U1055"
        string_val: "U1055"
        string_val: "U1055"
        string_val: "U1055"
        string_val: "U1055"
        string_val: "U1055"
        string_val: "U1055"
        string_val: "U1055"
        string_val: "U1055"
        string_val: "U1055"
        string_val: "U1074"
        string_val: "U1074"
        string_val: "U1074"
        string_val: "U1014"
        string_val: "U1014"
        string_val: "U1014"
        string_val: "U1014"
        string_val: "U1014"
        string_val: "U1014"
        string_val: "U1014"
        string_val: "U1014"
        string_val: "U1014"
        string_val: "U1014"
        string_val: "U1014"
        string_val: "U1098"
        string_val: "U1098"
        string_val: "U1098"
        string_val: "U1098"
        string_val: "U1098"
        string_val: "U1098"
        string_val: "U1098"
        string_val: "U1098"
        string_val: "U1098"
        string_val: "U1098"
        string_val: "U1098"
        string_val: "U1098"
        string_val: "U1076"
        string_val: "U1076"
        string_val: "U1076"
        string_val: "U1076"
        string_val: "U1076"
        string_val: "U1028"
        string_val: "U1028"
        string_val: "U1028"
        string_val: "U1028"
        string_val: "U1028"
        string_val: "U1028"
        string_val: "U1028"
        string_val: "U1100"
        string_val: "U1100"
        string_val: "U1100"
        string_val: "U1100"
        string_val: "U1100"
        string_val: "U1100"
        string_val: "U1021"
        string_val: "U1021"
        string_val: "U1021"
        string_val: "U1032"
        string_val: "U1032"
        string_val: "U1032"
        string_val: "U1032"
        string_val: "U1032"
        string_val: "U1032"
        string_val: "U1032"
        string_val: "U1032"
        string_val: "U1032"
        string_val: "U1032"
        string_val: "U1036"
        string_val: "U1036"
        string_val: "U1036"
        string_val: "U1036"
        string_val: "U1036"
        string_val: "U1036"
        string_val: "U1036"
        string_val: "U1036"
        string_val: "U1036"
        string_val: "U1036"
        string_val: "U1036"
        string_val: "U1036"
        string_val: "U1003"
        string_val: "U1003"
        string_val: "U1003"
        string_val: "U1003"
        string_val: "U1003"
        string_val: "U1003"
        string_val: "U1003"
        string_val: "U1003"
        string_val: "U1003"
        string_val: "U1003"
        string_val: "U1003"
        string_val: "U1003"
        string_val: "U1003"
        string_val: "U1047"
        string_val: "U1047"
        string_val: "U1047"
        string_val: "U1078"
        string_val: "U1078"
        string_val: "U1078"
        string_val: "U1078"
        string_val: "U1078"
        string_val: "U1078"
        string_val: "U1078"
        string_val: "U1020"
        string_val: "U1020"
        string_val: "U1020"
        string_val: "U1020"
        string_val: "U1015"
        string_val: "U1015"
        string_val: "U1015"
        string_val: "U1015"
        string_val: "U1015"
        string_val: "U1015"
        string_val: "U1015"
        string_val: "U1015"
        string_val: "U1095"
        string_val: "U1095"
        string_val: "U1095"
        string_val: "U1095"
        string_val: "U1095"
        string_val: "U1095"
        string_val: "U1095"
        string_val: "U1095"
        string_val: "U1095"
        string_val: "U1095"
        string_val: "U1096"
        string_val: "U1096"
        string_val: "U1096"
        string_val: "U1096"
        string_val: "U1096"
        string_val: "U1096"
        string_val: "U1096"
        string_val: "U1096"
        string_val: "U1096"
        string_val: "U1096"
        string_val: "U1096"
        string_val: "U1127"
        string_val: "U1127"
        string_val: "U1127"
        string_val: "U1127"
        string_val: "U1011"
        string_val: "U1011"
        string_val: "U1011"
        string_val: "U1066"
        string_val: "U1066"
        string_val: "U1066"
        string_val: "U1066"
        string_val: "U1066"
        string_val: "U1115"
        string_val: "U1115"
        string_val: "U1115"
        string_val: "U1115"
        string_val: "U1115"
        string_val: "U1115"
        string_val: "U1115"
        string_val: "U1115"
        string_val: "U1058"
        string_val: "U1058"
        string_val: "U1058"
        string_val: "U1058"
        string_val: "U1058"
        string_val: "U1058"
        string_val: "U1058"
        string_val: "U1058"
        string_val: "U1058"
        string_val: "U1058"
        string_val: "U1128"
        string_val: "U1128"
        string_val: "U1128"
        string_val: "U1128"
        string_val: "U1128"
        string_val: "U1128"
        string_val: "U1128"
        string_val: "U1128"
        string_val: "U1128"
        string_val: "U1128"
        string_val: "U1128"
        string_val: "U1022"
        string_val: "U1022"
        string_val: "U1022"
        string_val: "U1022"
        string_val: "U1022"
        string_val: "U1022"
        string_val: "U1022"
        string_val: "U1022"
        string_val: "U1022"
        string_val: "U1022"
        string_val: "U1022"
        string_val: "U1022"
        string_val: "U1022"
        string_val: "U1022"
        string_val: "U1012"
        string_val: "U1012"
        string_val: "U1012"
        string_val: "U1012"
        string_val: "U1012"
        string_val: "U1113"
        string_val: "U1113"
        string_val: "U1113"
        string_val: "U1113"
        string_val: "U1113"
        string_val: "U1113"
        string_val: "U1113"
        string_val: "U1113"
        string_val: "U1111"
        string_val: "U1111"
        string_val: "U1111"
        string_val: "U1111"
        string_val: "U1111"
        string_val: "U1111"
        string_val: "U1111"
        string_val: "U1111"
        string_val: "U1111"
        string_val: "U1111"
        string_val: "U1111"
        string_val: "U1016"
        string_val: "U1016"
        string_val: "U1016"
        string_val: "U1016"
        string_val: "U1016"
        string_val: "U1016"
        string_val: "U1016"
        string_val: "U1016"
        string_val: "U1016"
        string_val: "U1016"
        string_val: "U1016"
        string_val: "U1016"
        string_val: "U1016"
        string_val: "U1065"
        string_val: "U1065"
        string_val: "U1065"
        string_val: "U1065"
        string_val: "U1065"
        string_val: "U1109"
        string_val: "U1109"
        string_val: "U1109"
        string_val: "U1109"
        string_val: "U1109"
        string_val: "U1109"
        string_val: "U1109"
        string_val: "U1109"
        string_val: "U1109"
        string_val: "U1109"
        string_val: "U1048"
        string_val: "U1048"
        string_val: "U1117"
        string_val: "U1117"
        string_val: "U1049"
        string_val: "U1049"
        string_val: "U1088"
        string_val: "U1088"
        string_val: "U1088"
        string_val: "U1062"
        string_val: "U1062"
        string_val: "U1035"
        string_val: "U1035"
        string_val: "U1125"
        string_val: "U1125"
        string_val: "U1125"
        string_val: "U1013"
        string_val: "U1013"
        string_val: "U1013"
        string_val: "U1042"
        string_val: "U1123"
        string_val: "U1123"
        string_val: "U1086"
        string_val: "U1086"
        string_val: "U1006"
        string_val: "U1006"
        string_val: "U1006"
        string_val: "U1038"
        string_val: "U1053"
        string_val: "U1053"
        string_val: "U1053"
        string_val: "U1031"
        string_val: "U1005"
        string_val: "U1005"
        string_val: "U1060"
        string_val: "U1103"
        string_val: "U1103"
        string_val: "U1080"
        string_val: "U1080"
        string_val: "U1136"
        string_val: "U1136"
        string_val: "U1136"
        string_val: "U1072"
        string_val: "U1064"
        string_val: "U1052"
        string_val: "U1057"
        string_val: "U1057"
        string_val: "U1057"
        string_val: "U1004"
        string_val: "U1004"
        string_val: "U1121"
        string_val: "U1075"
        string_val: "U1075"
        string_val: "U1075"
        string_val: "U1081"
        string_val: "U1081"
        string_val: "U1081"
        string_val: "U1001"
        string_val: "U1001"
        string_val: "U1114"
        string_val: "U1114"
        string_val: "U1114"
        string_val: "U1054"
        string_val: "U1054"
        string_val: "U1054"
        string_val: "U1068"
        string_val: "U1068"
        string_val: "U1099"
        string_val: "U1099"
        string_val: "U1099"
        string_val: "U1023"
        string_val: "U1025"
        string_val: "U1025"
        string_val: "U1025"
        string_val: "U1044"
        string_val: "U1131"
        string_val: "U1131"
        string_val: "U1024"
        string_val: "U1024"
        string_val: "U1024"
        string_val: "U1024"
        string_val: "U1104"
        string_val: "U1104"
        string_val: "U1104"
        string_val: "U1092"
        string_val: "U1092"
        string_val: "U1056"
        string_val: "U1056"
        string_val: "U1056"
        string_val: "U1133"
        string_val: "U1133"
        string_val: "U1105"
        string_val: "U1105"
        string_val: "U1018"
        string_val: "U1018"
        string_val: "U1018"
        string_val: "U1082"
        string_val: "U1082"
        string_val: "U1094"
        string_val: "U1094"
        string_val: "U1069"
        string_val: "U1069"
        string_val: "U1124"
        string_val: "U1124"
        string_val: "U1124"
        string_val: "U1043"
        string_val: "U1079"
        string_val: "U1045"
        string_val: "U1045"
        string_val: "U1045"
        string_val: "U1090"
        string_val: "U1090"
        string_val: "U1090"
        string_val: "U1137"
        string_val: "U1137"
        string_val: "U1137"
        string_val: "U1137"
        string_val: "U1029"
        string_val: "U1029"
        string_val: "U1029"
        string_val: "U1026"
        string_val: "U1112"
        string_val: "U1112"
        string_val: "U1112"
        string_val: "U1134"
        string_val: "U1134"
        string_val: "U1134"
        string_val: "U1134"
        string_val: "U1126"
        string_val: "U1126"
        string_val: "U1126"
        string_val: "U1070"
        string_val: "U1102"
        string_val: "U1059"
        string_val: "U1059"
        string_val: "U1059"
        string_val: "U1107"
        string_val: "U1002"
        string_val: "U1002"
        string_val: "U1002"
        string_val: "U1040"
        string_val: "U1083"
        string_val: "U1083"
        string_val: "U1089"
        string_val: "U1089"
        string_val: "U1089"
        string_val: "U1089"
        string_val: "U1063"
        string_val: "U1051"
        string_val: "U1116"
        string_val: "U1116"
        string_val: "U1116"
      }
    }
  }
}
node {
  name: "normalize_element/component_5"
  op: "Const"
  device: "/device:CPU:0"
  attr {
    key: "_output_shapes"
    value {
      list {
        shape {
          dim {
            size: 736
          }
        }
      }
    }
  }
  attr {
    key: "dtype"
    value {
      type: DT_FLOAT
    }
  }
  attr {
    key: "value"
    value {
      tensor {
        dtype: DT_FLOAT
        tensor_shape {
          dim {
            size: 736
          }
        }
        tensor_content: "…"
      }
    }
  }
}
node {
  name: "normalize_element/component_6"
  op: "Const"
  device: "/device:CPU:0"
  attr {
    key: "_output_shapes"
    value {
      list {
        shape {
          dim {
            size: 736
          }
        }
      }
    }
  }
  attr {
    key: "dtype"
    value {
      type: DT_FLOAT
    }
  }
  attr {
    key: "value"
    value {
      tensor {
        dtype: DT_FLOAT
        tensor_shape {
          dim {
            size: 736
          }
        }
        tensor_content: "…"
      }
    }
  }
}
node {
  name: "normalize_element/component_7"
  op: "Const"
  device: "/device:CPU:0"
  attr {
    key: "_output_shapes"
    value {
      list {
        shape {
          dim {
            size: 736
          }
        }
      }
    }
  }
  attr {
    key: "dtype"
    value {
      type: DT_STRING
    }
  }
  attr {
    key: "value"
    value {
      tensor {
        dtype: DT_STRING
        tensor_shape {
          dim {
            size: 736
          }
        }
        string_val: "variety"
        string_val: "variety"
        string_val: "variety"
        string_val: "none"
        string_val: "none"
        string_val: "none"
        string_val: "variety"
        string_val: "variety"
        string_val: "variety"
        string_val: "variety"
        string_val: "variety"
        string_val: "variety"
        string_val: "variety"
        string_val: "variety"
        string_val: "variety"
        string_val: "variety"
        string_val: "variety"
        string_val: "technology"
        string_val: "technology"
        string_val: "technology"
        string_val: "technology"
        string_val: "technology"
        string_val: "technology"
        string_val: "technology"
        string_val: "variety"
        string_val: "variety"
        string_val: "variety"
        string_val: "variety"
        string_val: "variety"
        string_val: "variety"
        string_val: "variety"
        string_val: "variety"
        string_val: "variety"
        string_val: "technology"
        string_val: "technology"
        string_val: "technology"
        string_val: "technology"
        string_val: "technology"
        string_val: "technology"
        string_val: "technology"
        string_val: "technology"
        string_val: "technology"
        string_val: "technology"
        string_val: "technology"
        string_val: "technology"
        string_val: "technology"
        string_val: "technology"
        string_val: "technology"
        string_val: "technology"
        string_val: "technology"
        string_val: "technology"
        string_val: "technology"
        string_val: "technology"
        string_val: "technology"
        string_val: "technology"
        string_val: "technology"
        string_val: "technology"
        string_val: "technology"
        string_val: "technology"
        string_val: "technology"
        string_val: "technology"
        string_val: "technology"
        string_val: "technology"
        string_val: "technology"
        string_val: "technology"
        string_val: "technology"
        string_val: "technology"
        string_val: "technology"
        string_val: "technology"
        string_val: "technology"
        string_val: "variety"
        string_val: "variety"
        string_val: "variety"
        string_val: "variety"
        string_val: "technology"
        string_val: "technology"
        string_val: "technology"
        string_val: "technology"
        string_val: "technology"
        string_val: "retro"
        string_val: "retro"
        string_val: "retro"
        string_val: "retro"
        string_val: "retro"
        string_val: "retro"
        string_val: "retro"
        string_val: "retro"
        string_val: "retro"
        string_val: "retro"
        string_val: "retro"
        string_val: "variety"
        string_val: "variety"
        string_val: "variety"
        string_val: "variety"
        string_val: "variety"
        string_val: "variety"
        string_val: "variety"
        string_val: "variety"
        string_val: "none"
        string_val: "none"
        string_val: "none"
        string_val: "none"
        string_val: "none"
        string_val: "none"
        string_val: "none"
        string_val: "none"
        string_val: "none"
        string_val: "none"
        string_val: "none"
        string_val: "none"
        string_val: "none"
        string_val: "none"
        string_val: "none"
        string_val: "none"
        string_val: "none"
        string_val: "none"
        string_val: "none"
        string_val: "none"
        string_val: "none"
        string_val: "none"
        string_val: "none"
        string_val: "technology"
        string_val: "technology"
        string_val: "technology"
        string_val: "technology"
        string_val: "technology"
        string_val: "technology"
        string_val: "none"
        string_val: "none"
        string_val: "none"
        string_val: "none"
        string_val: "none"
        string_val: "none"
        string_val: "none"
        string_val: "none"
        string_val: "none"
        string_val: "none"
        string_val: "none"
        string_val: "none"
        string_val: "none"
        string_val: "eco-friendly"
        string_val: "eco-friendly"
        string_val: "eco-friendly"
        string_val: "eco-friendly"
        string_val: "eco-friendly"
        string_val: "eco-friendly"
        string_val: "eco-friendly"
        string_val: "eco-friendly"
        string_val: "eco-friendly"
        string_val: "eco-friendly"
        string_val: "eco-friendly"
        string_val: "eco-friendly"
        string_val: "eco-friendly"
        string_val: "eco-friendly"
        string_val: "eco-friendly"
        string_val: "eco-friendly"
        string_val: "eco-friendly"
        string_val: "eco-friendly"
        string_val: "variety"
        string_val: "variety"
        string_val: "variety"
        string_val: "variety"
        string_val: "variety"
        string_val: "variety"
        string_val: "variety"
        string_val: "variety"
        string_val: "variety"
        string_val: "variety"
        string_val: "variety"
        string_val: "variety"
        string_val: "variety"
        string_val: "variety"
        string_val: "variety"
        string_val: "variety"
        string_val: "variety"
        string_val: "variety"
        string_val: "variety"
        string_val: "variety"
        string_val: "variety"
        string_val: "variety"
        string_val: "variety"
        string_val: "variety"
        string_val: "none"
        string_val: "none"
        string_val: "none"
        string_val: "none"
        string_val: "none"
        string_val: "none"
        string_val: "none"
        string_val: "none"
        string_val: "none"
        string_val: "none"
        string_val: "none"
        string_val: "variety"
        string_val: "variety"
        string_val: "variety"
        string_val: "variety"
        string_val: "variety"
        string_val: "variety"
        string_val: "variety"
        string_val: "retro"
        string_val: "retro"
        string_val: "retro"
        string_val: "technology"
        string_val: "technology"
        string_val: "technology"
        string_val: "technology"
        string_val: "technology"
        string_val: "technology"
        string_val: "technology"
        string_val: "technology"
        string_val: "variety"
        string_val: "variety"
        string_val: "variety"
        string_val: "variety"
        string_val: "variety"
        string_val: "variety"
        string_val: "variety"
        string_val: "variety"
        string_val: "variety"
        string_val: "eco-friendly"
        string_val: "eco-friendly"
        string_val: "eco-friendly"
        string_val: "eco-friendly"
        string_val: "eco-friendly"
        string_val: "variety"
        string_val: "variety"
        string_val: "variety"
        string_val: "variety"
        string_val: "eco-friendly"
        string_val: "eco-friendly"
        string_val: "eco-friendly"
        string_val: "eco-friendly"
        string_val: "eco-friendly"
        string_val: "eco-friendly"
        string_val: "variety"
        string_val: "variety"
        string_val: "variety"
        string_val: "variety"
        string_val: "variety"
        string_val: "variety"
        string_val: "variety"
        string_val: "variety"
        string_val: "variety"
        string_val: "variety"
        string_val: "variety"
        string_val: "variety"
        string_val: "variety"
        string_val: "variety"
        string_val: "variety"
        string_val: "variety"
        string_val: "variety"
        string_val: "none"
        string_val: "none"
        string_val: "none"
        string_val: "none"
        string_val: "eco-friendly"
        string_val: "eco-friendly"
        string_val: "eco-friendly"
        string_val: "eco-friendly"
        string_val: "eco-friendly"
        string_val: "eco-friendly"
        string_val: "eco-friendly"
        string_val: "eco-friendly"
        string_val: "eco-friendly"
        string_val: "none"
        string_val: "none"
        string_val: "none"
        string_val: "none"
        string_val: "none"
        string_val: "none"
        string_val: "none"
        string_val: "none"
        string_val: "none"
        string_val: "none"
        string_val: "none"
        string_val: "none"
        string_val: "none"
        string_val: "none"
        string_val: "none"
        string_val: "none"
        string_val: "none"
        string_val: "none"
        string_val: "variety"
        string_val: "variety"
        string_val: "variety"
        string_val: "variety"
        string_val: "variety"
        string_val: "variety"
        string_val: "variety"
        string_val: "variety"
        string_val: "variety"
        string_val: "variety"
        string_val: "variety"
        string_val: "variety"
        string_val: "variety"
        string_val: "variety"
        string_val: "technology"
        string_val: "technology"
        string_val: "technology"
        string_val: "technology"
        string_val: "technology"
        string_val: "technology"
        string_val: "technology"
        string_val: "technology"
        string_val: "technology"
        string_val: "technology"
        string_val: "technology"
        string_val: "technology"
        string_val: "technology"
        string_val: "technology"
        string_val: "technology"
        string_val: "technology"
        string_val: "none"
        string_val: "none"
        string_val: "none"
        string_val: "none"
        string_val: "none"
        string_val: "none"
        string_val: "none"
        string_val: "none"
        string_val: "none"
        string_val: "none"
        string_val: "variety"
        string_val: "variety"
        string_val: "variety"
        string_val: "variety"
        string_val: "variety"
        string_val: "variety"
        string_val: "variety"
        string_val: "variety"
        string_val: "variety"
        string_val: "variety"
        string_val: "retro"
        string_val: "retro"
        string_val: "retro"
        string_val: "retro"
        string_val: "retro"
        string_val: "retro"
        string_val: "retro"
        string_val: "retro"
        string_val: "retro"
        string_val: "none"
        string_val: "none"
        string_val: "none"
        string_val: "none"
        string_val: "none"
        string_val: "none"
        string_val: "none"
        string_val: "none"
        string_val: "none"
        string_val: "none"
        string_val: "eco-friendly"
        string_val: "eco-friendly"
        string_val: "eco-friendly"
        string_val: "none"
        string_val: "none"
        string_val: "none"
        string_val: "none"
        string_val: "none"
        string_val: "none"
        string_val: "none"
        string_val: "none"
        string_val: "none"
        string_val: "none"
        string_val: "none"
        string_val: "none"
        string_val: "none"
        string_val: "none"
        string_val: "none"
        string_val: "none"
        string_val: "none"
        string_val: "none"
        string_val: "none"
        string_val: "none"
        string_val: "none"
        string_val: "none"
        string_val: "none"
        string_val: "technology"
        string_val: "technology"
        string_val: "technology"
        string_val: "technology"
        string_val: "technology"
        string_val: "variety"
        string_val: "variety"
        string_val: "variety"
        string_val: "variety"
        string_val: "variety"
        string_val: "variety"
        string_val: "variety"
        string_val: "eco-friendly"
        string_val: "eco-friendly"
        string_val: "eco-friendly"
        string_val: "eco-friendly"
        string_val: "eco-friendly"
        string_val: "eco-friendly"
        string_val: "none"
        string_val: "none"
        string_val: "none"
        string_val: "variety"
        string_val: "variety"
        string_val: "variety"
        string_val: "variety"
        string_val: "variety"
        string_val: "variety"
        string_val: "variety"
        string_val: "variety"
        string_val: "variety"
        string_val: "variety"
        string_val: "none"
        string_val: "none"
        string_val: "none"
        string_val: "none"
        string_val: "none"
        string_val: "none"
        string_val: "none"
        string_val: "none"
        string_val: "none"
        string_val: "none"
        string_val: "none"
        string_val: "none"
        string_val: "none"
        string_val: "none"
        string_val: "none"
        string_val: "none"
        string_val: "none"
        string_val: "none"
        string_val: "none"
        string_val: "none"
        string_val: "none"
        string_val: "none"
        string_val: "none"
        string_val: "none"
        string_val: "none"
        string_val: "retro"
        string_val: "retro"
        string_val: "retro"
        string_val: "variety"
        string_val: "variety"
        string_val: "variety"
        string_val: "variety"
        string_val: "variety"
        string_val: "variety"
        string_val: "variety"
        string_val: "technology"
        string_val: "technology"
        string_val: "technology"
        string_val: "technology"
        string_val: "technology"
        string_val: "technology"
        string_val: "technology"
        string_val: "technology"
        string_val: "technology"
        string_val: "technology"
        string_val: "technology"
        string_val: "technology"
        string_val: "variety"
        string_val: "variety"
        string_val: "variety"
        string_val: "variety"
        string_val: "variety"
        string_val: "variety"
        string_val: "variety"
        string_val: "variety"
        string_val: "variety"
        string_val: "variety"
        string_val: "eco-friendly"
        string_val: "eco-friendly"
        string_val: "eco-friendly"
        string_val: "eco-friendly"
        string_val: "eco-friendly"
        string_val: "eco-friendly"
        string_val: "eco-friendly"
        string_val: "eco-friendly"
        string_val: "eco-friendly"
        string_val: "eco-friendly"
        string_val: "eco-friendly"
        string_val: "variety"
        string_val: "variety"
        string_val: "variety"
        string_val: "variety"
        string_val: "variety"
        string_val: "variety"
        string_val: "variety"
        string_val: "technology"
        string_val: "technology"
        string_val: "technology"
        string_val: "technology"
        string_val: "technology"
        string_val: "variety"
        string_val: "variety"
        string_val: "variety"
        string_val: "variety"
        string_val: "variety"
        string_val: "variety"
        string_val: "variety"
        string_val: "variety"
        string_val: "variety"
        string_val: "variety"
        string_val: "variety"
        string_val: "variety"
        string_val: "variety"
        string_val: "variety"
        string_val: "variety"
        string_val: "variety"
        string_val: "variety"
        string_val: "variety"
        string_val: "variety"
        string_val: "variety"
        string_val: "variety"
        string_val: "variety"
        string_val: "variety"
        string_val: "variety"
        string_val: "variety"
        string_val: "variety"
        string_val: "variety"
        string_val: "variety"
        string_val: "variety"
        string_val: "variety"
        string_val: "variety"
        string_val: "variety"
        string_val: "variety"
        string_val: "variety"
        string_val: "variety"
        string_val: "variety"
        string_val: "variety"
        string_val: "variety"
        string_val: "variety"
        string_val: "variety"
        string_val: "variety"
        string_val: "variety"
        string_val: "variety"
        string_val: "technology"
        string_val: "technology"
        string_val: "technology"
        string_val: "technology"
        string_val: "technology"
        string_val: "none"
        string_val: "none"
        string_val: "none"
        string_val: "none"
        string_val: "none"
        string_val: "none"
        string_val: "none"
        string_val: "none"
        string_val: "none"
        string_val: "none"
        string_val: "none"
        string_val: "none"
        string_val: "none"
        string_val: "none"
        string_val: "none"
        string_val: "none"
        string_val: "none"
        string_val: "none"
        string_val: "none"
        string_val: "eco-friendly"
        string_val: "eco-friendly"
        string_val: "eco-friendly"
        string_val: "eco-friendly"
        string_val: "eco-friendly"
        string_val: "eco-friendly"
        string_val: "eco-friendly"
        string_val: "eco-friendly"
        string_val: "eco-friendly"
        string_val: "eco-friendly"
        string_val: "eco-friendly"
        string_val: "eco-friendly"
        string_val: "eco-friendly"
        string_val: "technology"
        string_val: "technology"
        string_val: "technology"
        string_val: "technology"
        string_val: "technology"
        string_val: "eco-friendly"
        string_val: "eco-friendly"
        string_val: "eco-friendly"
        string_val: "eco-friendly"
        string_val: "eco-friendly"
        string_val: "eco-friendly"
        string_val: "eco-friendly"
        string_val: "eco-friendly"
        string_val: "eco-friendly"
        string_val: "eco-friendly"
        string_val: "eco-friendly"
        string_val: "eco-friendly"
        string_val: "technology"
        string_val: "technology"
        string_val: "none"
        string_val: "none"
        string_val: "none"
        string_val: "none"
        string_val: "none"
        string_val: "variety"
        string_val: "variety"
        string_val: "variety"
        string_val: "variety"
        string_val: "technology"
        string_val: "technology"
        string_val: "technology"
        string_val: "retro"
        string_val: "retro"
        string_val: "retro"
        string_val: "technology"
        string_val: "technology"
        string_val: "technology"
        string_val: "variety"
        string_val: "variety"
        string_val: "variety"
        string_val: "variety"
        string_val: "variety"
        string_val: "variety"
        string_val: "variety"
        string_val: "variety"
        string_val: "variety"
        string_val: "none"
        string_val: "none"
        string_val: "none"
        string_val: "technology"
        string_val: "technology"
        string_val: "technology"
        string_val: "variety"
        string_val: "variety"
        string_val: "retro"
        string_val: "retro"
        string_val: "retro"
        string_val: "eco-friendly"
        string_val: "variety"
        string_val: "none"
        string_val: "technology"
        string_val: "technology"
        string_val: "technology"
        string_val: "variety"
        string_val: "variety"
        string_val: "variety"
        string_val: "technology"
        string_val: "technology"
        string_val: "technology"
        string_val: "variety"
        string_val: "variety"
        string_val: "variety"
        string_val: "variety"
        string_val: "variety"
        string_val: "variety"
        string_val: "variety"
        string_val: "variety"
        string_val: "technology"
        string_val: "technology"
        string_val: "technology"
        string_val: "technology"
        string_val: "technology"
        string_val: "technology"
        string_val: "technology"
        string_val: "technology"
        string_val: "none"
        string_val: "none"
        string_val: "none"
        string_val: "none"
        string_val: "variety"
        string_val: "eco-friendly"
        string_val: "eco-friendly"
        string_val: "none"
        string_val: "none"
        string_val: "none"
        string_val: "none"
        string_val: "technology"
        string_val: "technology"
        string_val: "technology"
        string_val: "variety"
        string_val: "variety"
        string_val: "none"
        string_val: "none"
        string_val: "none"
        string_val: "none"
        string_val: "none"
        string_val: "variety"
        string_val: "variety"
        string_val: "technology"
        string_val: "technology"
        string_val: "technology"
        string_val: "variety"
        string_val: "variety"
        string_val: "variety"
        string_val: "variety"
        string_val: "variety"
        string_val: "variety"
        string_val: "none"
        string_val: "none"
        string_val: "none"
        string_val: "technology"
        string_val: "technology"
        string_val: "technology"
        string_val: "technology"
        string_val: "technology"
        string_val: "variety"
        string_val: "variety"
        string_val: "variety"
        string_val: "eco-friendly"
        string_val: "eco-friendly"
        string_val: "eco-friendly"
        string_val: "eco-friendly"
        string_val: "variety"
        string_val: "variety"
        string_val: "variety"
        string_val: "technology"
        string_val: "none"
        string_val: "none"
        string_val: "none"
        string_val: "variety"
        string_val: "variety"
        string_val: "variety"
        string_val: "variety"
        string_val: "technology"
        string_val: "technology"
        string_val: "technology"
        string_val: "variety"
        string_val: "eco-friendly"
        string_val: "technology"
        string_val: "technology"
        string_val: "technology"
        string_val: "variety"
        string_val: "technology"
        string_val: "technology"
        string_val: "technology"
        string_val: "none"
        string_val: "none"
        string_val: "none"
        string_val: "variety"
        string_val: "variety"
        string_val: "variety"
        string_val: "variety"
        string_val: "eco-friendly"
        string_val: "variety"
        string_val: "technology"
        string_val: "technology"
        string_val: "technology"
      }
    }
  }
}
node {
  name: "normalize_element/component_8"
  op: "Const"
  device: "/device:CPU:0"
  attr {
    key: "_output_shapes"
    value {
      list {
        shape {
          dim {
            size: 736
          }
        }
      }
    }
  }
  attr {
    key: "dtype"
    value {
      type: DT_STRING
    }
  }
  attr {
    key: "value"
    value {
      tensor {
        dtype: DT_STRING
        tensor_shape {
          dim {
            size: 736
          }
        }
        string_val: "thrifty-protector"
        string_val: "thrifty-protector"
        string_val: "thrifty-protector"
        string_val: "hard-worker"
        string_val: "hard-worker"
        string_val: "hard-worker"
        string_val: "thrifty-protector"
        string_val: "thrifty-protector"
        string_val: "thrifty-protector"
        string_val: "thrifty-protector"
        string_val: "thrifty-protector"
        string_val: "thrifty-protector"
        string_val: "thrifty-protector"
        string_val: "thrifty-protector"
        string_val: "thrifty-protector"
        string_val: "thrifty-protector"
        string_val: "thrifty-protector"
        string_val: "thrifty-protector"
        string_val: "thrifty-protector"
        string_val: "thrifty-protector"
        string_val: "thrifty-protector"
        string_val: "thrifty-protector"
        string_val: "thrifty-protector"
        string_val: "thrifty-protector"
        string_val: "hard-worker"
        string_val: "hard-worker"
        string_val: "hard-worker"
        string_val: "hard-worker"
        string_val: "hard-worker"
        string_val: "hard-worker"
        string_val: "hard-worker"
        string_val: "hard-worker"
        string_val: "hard-worker"
        string_val: "hard-worker"
        string_val: "hard-worker"
        string_val: "hard-worker"
        string_val: "hard-worker"
        string_val: "hard-worker"
        string_val: "hard-worker"
        string_val: "hard-worker"
        string_val: "hard-worker"
        string_val: "hard-worker"
        string_val: "hard-worker"
        string_val: "hard-worker"
        string_val: "hard-worker"
        string_val: "hard-worker"
        string_val: "hard-worker"
        string_val: "hard-worker"
        string_val: "hard-worker"
        string_val: "hard-worker"
        string_val: "hard-worker"
        string_val: "hard-worker"
        string_val: "hard-worker"
        string_val: "hard-worker"
        string_val: "hard-worker"
        string_val: "hard-worker"
        string_val: "hard-worker"
        string_val: "hard-worker"
        string_val: "hard-worker"
        string_val: "hard-worker"
        string_val: "thrifty-protector"
        string_val: "thrifty-protector"
        string_val: "thrifty-protector"
        string_val: "thrifty-protector"
        string_val: "thrifty-protector"
        string_val: "thrifty-protector"
        string_val: "thrifty-protector"
        string_val: "thrifty-protector"
        string_val: "thrifty-protector"
        string_val: "thrifty-protector"
        string_val: "thrifty-protector"
        string_val: "thrifty-protector"
        string_val: "thrifty-protector"
        string_val: "thrifty-protector"
        string_val: "thrifty-protector"
        string_val: "thrifty-protector"
        string_val: "thrifty-protector"
        string_val: "thrifty-protector"
        string_val: "thrifty-protector"
        string_val: "thrifty-protector"
        string_val: "thrifty-protector"
        string_val: "thrifty-protector"
        string_val: "thrifty-protector"
        string_val: "thrifty-protector"
        string_val: "thrifty-protector"
        string_val: "thrifty-protector"
        string_val: "thrifty-protector"
        string_val: "thrifty-protector"
        string_val: "thrifty-protector"
        string_val: "thrifty-protector"
        string_val: "thrifty-protector"
        string_val: "thrifty-protector"
        string_val: "thrifty-protector"
        string_val: "thrifty-protector"
        string_val: "thrifty-protector"
        string_val: "thrifty-protector"
        string_val: "thrifty-protector"
        string_val: "thrifty-protector"
        string_val: "hard-worker"
        string_val: "hard-worker"
        string_val: "hard-worker"
        string_val: "hard-worker"
        string_val: "hard-worker"
        string_val: "hard-worker"
        string_val: "hard-worker"
        string_val: "hard-worker"
        string_val: "hard-worker"
        string_val: "hard-worker"
        string_val: "hard-worker"
        string_val: "hard-worker"
        string_val: "hard-worker"
        string_val: "hard-worker"
        string_val: "hard-worker"
        string_val: "hard-worker"
        string_val: "hard-worker"
        string_val: "hard-worker"
        string_val: "hard-worker"
        string_val: "hard-worker"
        string_val: "hard-worker"
        string_val: "hard-worker"
        string_val: "hard-worker"
        string_val: "thrifty-protector"
        string_val: "thrifty-protector"
        string_val: "thrifty-protector"
        string_val: "thrifty-protector"
        string_val: "thrifty-protector"
        string_val: "thrifty-protector"
        string_val: "hunter-ostentatious"
        string_val: "hunter-ostentatious"
        string_val: "hunter-ostentatious"
        string_val: "hunter-ostentatious"
        string_val: "hunter-ostentatious"
        string_val: "hunter-ostentatious"
        string_val: "hunter-ostentatious"
        string_val: "hunter-ostentatious"
        string_val: "hunter-ostentatious"
        string_val: "hunter-ostentatious"
        string_val: "hunter-ostentatious"
        string_val: "hunter-ostentatious"
        string_val: "hunter-ostentatious"
        string_val: "hard-worker"
        string_val: "hard-worker"
        string_val: "hard-worker"
        string_val: "hard-worker"
        string_val: "hard-worker"
        string_val: "hard-worker"
        string_val: "hard-worker"
        string_val: "hard-worker"
        string_val: "hunter-ostentatious"
        string_val: "hunter-ostentatious"
        string_val: "hunter-ostentatious"
        string_val: "hunter-ostentatious"
        string_val: "hunter-ostentatious"
        string_val: "hunter-ostentatious"
        string_val: "hunter-ostentatious"
        string_val: "hunter-ostentatious"
        string_val: "hunter-ostentatious"
        string_val: "hunter-ostentatious"
        string_val: "hard-worker"
        string_val: "hard-worker"
        string_val: "hard-worker"
        string_val: "hard-worker"
        string_val: "hard-worker"
        string_val: "hard-worker"
        string_val: "hard-worker"
        string_val: "hard-worker"
        string_val: "hard-worker"
        string_val: "hard-worker"
        string_val: "hard-worker"
        string_val: "hard-worker"
        string_val: "hard-worker"
        string_val: "thrifty-protector"
        string_val: "thrifty-protector"
        string_val: "thrifty-protector"
        string_val: "thrifty-protector"
        string_val: "thrifty-protector"
        string_val: "thrifty-protector"
        string_val: "thrifty-protector"
        string_val: "thrifty-protector"
        string_val: "thrifty-protector"
        string_val: "thrifty-protector"
        string_val: "thrifty-protector"
        string_val: "hard-worker"
        string_val: "hard-worker"
        string_val: "hard-worker"
        string_val: "hard-worker"
        string_val: "hard-worker"
        string_val: "hard-worker"
        string_val: "hard-worker"
        string_val: "hard-worker"
        string_val: "hard-worker"
        string_val: "hard-worker"
        string_val: "hard-worker"
        string_val: "hard-worker"
        string_val: "hard-worker"
        string_val: "hard-worker"
        string_val: "hard-worker"
        string_val: "hard-worker"
        string_val: "hard-worker"
        string_val: "hard-worker"
        string_val: "hunter-ostentatious"
        string_val: "hunter-ostentatious"
        string_val: "hunter-ostentatious"
        string_val: "hard-worker"
        string_val: "hard-worker"
        string_val: "hard-worker"
        string_val: "hard-worker"
        string_val: "hard-worker"
        string_val: "hard-worker"
        string_val: "hard-worker"
        string_val: "hard-worker"
        string_val: "thrifty-protector"
        string_val: "thrifty-protector"
        string_val: "thrifty-protector"
        string_val: "thrifty-protector"
        string_val: "thrifty-protector"
        string_val: "thrifty-protector"
        string_val: "thrifty-protector"
        string_val: "thrifty-protector"
        string_val: "thrifty-protector"
        string_val: "thrifty-protector"
        string_val: "thrifty-protector"
        string_val: "thrifty-protector"
        string_val: "thrifty-protector"
        string_val: "thrifty-protector"
        string_val: "thrifty-protector"
        string_val: "thrifty-protector"
        string_val: "thrifty-protector"
        string_val: "thrifty-protector"
        string_val: "hunter-ostentatious"
        string_val: "hunter-ostentatious"
        string_val: "hunter-ostentatious"
        string_val: "hunter-ostentatious"
        string_val: "hunter-ostentatious"
        string_val: "hunter-ostentatious"
        string_val: "thrifty-protector"
        string_val: "thrifty-protector"
        string_val: "thrifty-protector"
        string_val: "thrifty-protector"
        string_val: "thrifty-protector"
        string_val: "thrifty-protector"
        string_val: "thrifty-protector"
        string_val: "thrifty-protector"
        string_val: "thrifty-protector"
        string_val: "thrifty-protector"
        string_val: "thrifty-protector"
        string_val: "thrifty-protector"
        string_val: "thrifty-protector"
        string_val: "thrifty-protector"
        string_val: "thrifty-protector"
        string_val: "thrifty-protector"
        string_val: "thrifty-protector"
        string_val: "hard-worker"
        string_val: "hard-worker"
        string_val: "hard-worker"
        string_val: "hard-worker"
        string_val: "thrifty-protector"
        string_val: "thrifty-protector"
        string_val: "thrifty-protector"
        string_val: "thrifty-protector"
        string_val: "thrifty-protector"
        string_val: "thrifty-protector"
        string_val: "thrifty-protector"
        string_val: "thrifty-protector"
        string_val: "thrifty-protector"
        string_val: "hard-worker"
        string_val: "hard-worker"
        string_val: "hard-worker"
        string_val: "hard-worker"
        string_val: "hard-worker"
        string_val: "hard-worker"
        string_val: "hard-worker"
        string_val: "hard-worker"
        string_val: "hard-worker"
        string_val: "hard-worker"
        string_val: "hard-worker"
        string_val: "hard-worker"
        string_val: "hard-worker"
        string_val: "hard-worker"
        string_val: "hard-worker"
        string_val: "hard-worker"
        string_val: "hard-worker"
        string_val: "hard-worker"
        string_val: "hunter-ostentatious"
        string_val: "hunter-ostentatious"
        string_val: "hunter-ostentatious"
        string_val: "hunter-ostentatious"
        string_val: "hunter-ostentatious"
        string_val: "hunter-ostentatious"
        string_val: "hunter-ostentatious"
        string_val: "hunter-ostentatious"
        string_val: "hunter-ostentatious"
        string_val: "hunter-ostentatious"
        string_val: "hunter-ostentatious"
        string_val: "hunter-ostentatious"
        string_val: "hunter-ostentatious"
        string_val: "hunter-ostentatious"
        string_val: "thrifty-protector"
        string_val: "thrifty-protector"
        string_val: "thrifty-protector"
        string_val: "thrifty-protector"
        string_val: "thrifty-protector"
        string_val: "thrifty-protector"
        string_val: "thrifty-protector"
        string_val: "thrifty-protector"
        string_val: "thrifty-protector"
        string_val: "thrifty-protector"
        string_val: "thrifty-protector"
        string_val: "thrifty-protector"
        string_val: "thrifty-protector"
        string_val: "thrifty-protector"
        string_val: "thrifty-protector"
        string_val: "thrifty-protector"
        string_val: "hard-worker"
        string_val: "hard-worker"
        string_val: "hard-worker"
        string_val: "hard-worker"
        string_val: "hard-worker"
        string_val: "hard-worker"
        string_val: "hard-worker"
        string_val: "hard-worker"
        string_val: "hard-worker"
        string_val: "hard-worker"
        string_val: "thrifty-protector"
        string_val: "thrifty-protector"
        string_val: "thrifty-protector"
        string_val: "thrifty-protector"
        string_val: "thrifty-protector"
        string_val: "thrifty-protector"
        string_val: "thrifty-protector"
        string_val: "thrifty-protector"
        string_val: "thrifty-protector"
        string_val: "thrifty-protector"
        string_val: "hard-worker"
        string_val: "hard-worker"
        string_val: "hard-worker"
        string_val: "hard-worker"
        string_val: "hard-worker"
        string_val: "hard-worker"
        string_val: "hard-worker"
        string_val: "hard-worker"
        string_val: "hard-worker"
        string_val: "hard-worker"
        string_val: "hard-worker"
        string_val: "hard-worker"
        string_val: "hard-worker"
        string_val: "hard-worker"
        string_val: "hard-worker"
        string_val: "hard-worker"
        string_val: "hard-worker"
        string_val: "hard-worker"
        string_val: "hard-worker"
        string_val: "hard-worker"
        string_val: "hard-worker"
        string_val: "hard-worker"
        string_val: "hard-worker"
        string_val: "hard-worker"
        string_val: "hard-worker"
        string_val: "hard-worker"
        string_val: "hard-worker"
        string_val: "hard-worker"
        string_val: "hard-worker"
        string_val: "hard-worker"
        string_val: "hard-worker"
        string_val: "hard-worker"
        string_val: "hard-worker"
        string_val: "thrifty-protector"
        string_val: "thrifty-protector"
        string_val: "thrifty-protector"
        string_val: "thrifty-protector"
        string_val: "thrifty-protector"
        string_val: "thrifty-protector"
        string_val: "thrifty-protector"
        string_val: "thrifty-protector"
        string_val: "thrifty-protector"
        string_val: "thrifty-protector"
        string_val: "thrifty-protector"
        string_val: "thrifty-protector"
        string_val: "thrifty-protector"
        string_val: "thrifty-protector"
        string_val: "thrifty-protector"
        string_val: "thrifty-protector"
        string_val: "thrifty-protector"
        string_val: "hard-worker"
        string_val: "hard-worker"
        string_val: "hard-worker"
        string_val: "hard-worker"
        string_val: "hard-worker"
        string_val: "hard-worker"
        string_val: "hard-worker"
        string_val: "hard-worker"
        string_val: "hard-worker"
        string_val: "hard-worker"
        string_val: "hard-worker"
        string_val: "hard-worker"
        string_val: "hard-worker"
        string_val: "hard-worker"
        string_val: "hard-worker"
        string_val: "hard-worker"
        string_val: "hard-worker"
        string_val: "hard-worker"
        string_val: "hard-worker"
        string_val: "hard-worker"
        string_val: "hard-worker"
        string_val: "hard-worker"
        string_val: "hard-worker"
        string_val: "hard-worker"
        string_val: "hard-worker"
        string_val: "hard-worker"
        string_val: "hard-worker"
        string_val: "hard-worker"
        string_val: "hard-worker"
        string_val: "hard-worker"
        string_val: "hard-worker"
        string_val: "hard-worker"
        string_val: "hard-worker"
        string_val: "hard-worker"
        string_val: "hard-worker"
        string_val: "hard-worker"
        string_val: "hard-worker"
        string_val: "hard-worker"
        string_val: "hard-worker"
        string_val: "hard-worker"
        string_val: "hard-worker"
        string_val: "hard-worker"
        string_val: "hard-worker"
        string_val: "hard-worker"
        string_val: "hard-worker"
        string_val: "hard-worker"
        string_val: "hard-worker"
        string_val: "hard-worker"
        string_val: "hard-worker"
        string_val: "hard-worker"
        string_val: "hard-worker"
        string_val: "thrifty-protector"
        string_val: "thrifty-protector"
        string_val: "thrifty-protector"
        string_val: "hard-worker"
        string_val: "hard-worker"
        string_val: "hard-worker"
        string_val: "hard-worker"
        string_val: "hard-worker"
        string_val: "hard-worker"
        string_val: "hard-worker"
        string_val: "hard-worker"
        string_val: "hard-worker"
        string_val: "hard-worker"
        string_val: "hard-worker"
        string_val: "thrifty-protector"
        string_val: "thrifty-protector"
        string_val: "thrifty-protector"
        string_val: "thrifty-protector"
        string_val: "thrifty-protector"
        string_val: "thrifty-protector"
        string_val: "thrifty-protector"
        string_val: "thrifty-protector"
        string_val: "thrifty-protector"
        string_val: "thrifty-protector"
        string_val: "thrifty-protector"
        string_val: "thrifty-protector"
        string_val: "thrifty-protector"
        string_val: "thrifty-protector"
        string_val: "thrifty-protector"
        string_val: "thrifty-protector"
        string_val: "thrifty-protector"
        string_val: "thrifty-protector"
        string_val: "hard-worker"
        string_val: "hard-worker"
        string_val: "hard-worker"
        string_val: "hard-worker"
        string_val: "hard-worker"
        string_val: "hard-worker"
        string_val: "hard-worker"
        string_val: "hard-worker"
        string_val: "hard-worker"
        string_val: "hard-worker"
        string_val: "hard-worker"
        string_val: "hard-worker"
        string_val: "hard-worker"
        string_val: "hard-worker"
        string_val: "hard-worker"
        string_val: "hard-worker"
        string_val: "hard-worker"
        string_val: "hard-worker"
        string_val: "thrifty-protector"
        string_val: "thrifty-protector"
        string_val: "thrifty-protector"
        string_val: "thrifty-protector"
        string_val: "thrifty-protector"
        string_val: "hard-worker"
        string_val: "hard-worker"
        string_val: "hard-worker"
        string_val: "hard-worker"
        string_val: "hard-worker"
        string_val: "hard-worker"
        string_val: "hard-worker"
        string_val: "hard-worker"
        string_val: "hard-worker"
        string_val: "hard-worker"
        string_val: "hard-worker"
        string_val: "hard-worker"
        string_val: "hard-worker"
        string_val: "hard-worker"
        string_val: "hard-worker"
        string_val: "hard-worker"
        string_val: "hard-worker"
        string_val: "hard-worker"
        string_val: "thrifty-protector"
        string_val: "thrifty-protector"
        string_val: "thrifty-protector"
        string_val: "thrifty-protector"
        string_val: "thrifty-protector"
        string_val: "thrifty-protector"
        string_val: "thrifty-protector"
        string_val: "thrifty-protector"
        string_val: "thrifty-protector"
        string_val: "thrifty-protector"
        string_val: "thrifty-protector"
        string_val: "hard-worker"
        string_val: "hard-worker"
        string_val: "hard-worker"
        string_val: "hard-worker"
        string_val: "hard-worker"
        string_val: "hard-worker"
        string_val: "hard-worker"
        string_val: "hard-worker"
        string_val: "hard-worker"
        string_val: "hard-worker"
        string_val: "hard-worker"
        string_val: "hard-worker"
        string_val: "hard-worker"
        string_val: "hard-worker"
        string_val: "hard-worker"
        string_val: "hard-worker"
        string_val: "hard-worker"
        string_val: "hard-worker"
        string_val: "hard-worker"
        string_val: "thrifty-protector"
        string_val: "thrifty-protector"
        string_val: "thrifty-protector"
        string_val: "thrifty-protector"
        string_val: "thrifty-protector"
        string_val: "thrifty-protector"
        string_val: "thrifty-protector"
        string_val: "thrifty-protector"
        string_val: "hard-worker"
        string_val: "hard-worker"
        string_val: "hard-worker"
        string_val: "hard-worker"
        string_val: "hard-worker"
        string_val: "hard-worker"
        string_val: "hard-worker"
        string_val: "hard-worker"
        string_val: "hard-worker"
        string_val: "hard-worker"
        string_val: "hard-worker"
        string_val: "thrifty-protector"
        string_val: "thrifty-protector"
        string_val: "thrifty-protector"
        string_val: "thrifty-protector"
        string_val: "thrifty-protector"
        string_val: "thrifty-protector"
        string_val: "thrifty-protector"
        string_val: "thrifty-protector"
        string_val: "thrifty-protector"
        string_val: "thrifty-protector"
        string_val: "thrifty-protector"
        string_val: "thrifty-protector"
        string_val: "thrifty-protector"
        string_val: "conformist"
        string_val: "conformist"
        string_val: "conformist"
        string_val: "conformist"
        string_val: "conformist"
        string_val: "thrifty-protector"
        string_val: "thrifty-protector"
        string_val: "thrifty-protector"
        string_val: "thrifty-protector"
        string_val: "thrifty-protector"
        string_val: "thrifty-protector"
        string_val: "thrifty-protector"
        string_val: "thrifty-protector"
        string_val: "thrifty-protector"
        string_val: "thrifty-protector"
        string_val: "thrifty-protector"
        string_val: "thrifty-protector"
        string_val: "thrifty-protector"
        string_val: "thrifty-protector"
        string_val: "hard-worker"
        string_val: "hard-worker"
        string_val: "hard-worker"
        string_val: "hard-worker"
        string_val: "hard-worker"
        string_val: "hard-worker"
        string_val: "hard-worker"
        string_val: "hunter-ostentatious"
        string_val: "hunter-ostentatious"
        string_val: "hard-worker"
        string_val: "hard-worker"
        string_val: "hard-worker"
        string_val: "thrifty-protector"
        string_val: "thrifty-protector"
        string_val: "thrifty-protector"
        string_val: "thrifty-protector"
        string_val: "hard-worker"
        string_val: "hard-worker"
        string_val: "hunter-ostentatious"
        string_val: "hunter-ostentatious"
        string_val: "hard-worker"
        string_val: "hard-worker"
        string_val: "hard-worker"
        string_val: "thrifty-protector"
        string_val: "thrifty-protector"
        string_val: "thrifty-protector"
        string_val: "thrifty-protector"
        string_val: "hard-worker"
        string_val: "thrifty-protector"
        string_val: "thrifty-protector"
        string_val: "thrifty-protector"
        string_val: "hard-worker"
        string_val: "hard-worker"
        string_val: "hard-worker"
        string_val: "hard-worker"
        string_val: "thrifty-protector"
        string_val: "thrifty-protector"
        string_val: "thrifty-protector"
        string_val: "thrifty-protector"
        string_val: "hunter-ostentatious"
        string_val: "conformist"
        string_val: "hunter-ostentatious"
        string_val: "hunter-ostentatious"
        string_val: "hunter-ostentatious"
        string_val: "hard-worker"
        string_val: "hard-worker"
        string_val: "thrifty-protector"
        string_val: "thrifty-protector"
        string_val: "thrifty-protector"
        string_val: "thrifty-protector"
        string_val: "hard-worker"
        string_val: "hard-worker"
        string_val: "hard-worker"
        string_val: "thrifty-protector"
        string_val: "thrifty-protector"
        string_val: "hard-worker"
        string_val: "hard-worker"
        string_val: "hard-worker"
        string_val: "thrifty-protector"
        string_val: "thrifty-protector"
        string_val: "thrifty-protector"
        string_val: "thrifty-protector"
        string_val: "thrifty-protector"
        string_val: "conformist"
        string_val: "conformist"
        string_val: "conformist"
        string_val: "hard-worker"
        string_val: "thrifty-protector"
        string_val: "thrifty-protector"
        string_val: "thrifty-protector"
        string_val: "thrifty-protector"
        string_val: "hard-worker"
        string_val: "hard-worker"
        string_val: "hard-worker"
        string_val: "hard-worker"
        string_val: "hard-worker"
        string_val: "hard-worker"
        string_val: "hunter-ostentatious"
        string_val: "hunter-ostentatious"
        string_val: "hunter-ostentatious"
        string_val: "thrifty-protector"
        string_val: "thrifty-protector"
        string_val: "hard-worker"
        string_val: "hard-worker"
        string_val: "hard-worker"
        string_val: "hard-worker"
        string_val: "hard-worker"
        string_val: "hard-worker"
        string_val: "hard-worker"
        string_val: "thrifty-protector"
        string_val: "thrifty-protector"
        string_val: "thrifty-protector"
        string_val: "hard-worker"
        string_val: "hard-worker"
        string_val: "thrifty-protector"
        string_val: "thrifty-protector"
        string_val: "thrifty-protector"
        string_val: "thrifty-protector"
        string_val: "hard-worker"
        string_val: "hard-worker"
        string_val: "hard-worker"
        string_val: "hard-worker"
        string_val: "thrifty-protector"
        string_val: "thrifty-protector"
        string_val: "thrifty-protector"
        string_val: "thrifty-protector"
        string_val: "thrifty-protector"
        string_val: "thrifty-protector"
        string_val: "thrifty-protector"
        string_val: "hard-worker"
        string_val: "hard-worker"
        string_val: "hard-worker"
        string_val: "hard-worker"
        string_val: "conformist"
        string_val: "conformist"
        string_val: "conformist"
        string_val: "hunter-ostentatious"
        string_val: "hard-worker"
        string_val: "hard-worker"
        string_val: "hard-worker"
        string_val: "hard-worker"
        string_val: "hard-worker"
        string_val: "hard-worker"
        string_val: "hard-worker"
        string_val: "hard-worker"
        string_val: "hard-worker"
        string_val: "hard-worker"
        string_val: "thrifty-protector"
        string_val: "conformist"
        string_val: "thrifty-protector"
        string_val: "thrifty-protector"
        string_val: "thrifty-protector"
        string_val: "hard-worker"
        string_val: "hunter-ostentatious"
        string_val: "hunter-ostentatious"
        string_val: "hunter-ostentatious"
        string_val: "thrifty-protector"
        string_val: "hard-worker"
        string_val: "hard-worker"
        string_val: "conformist"
        string_val: "conformist"
        string_val: "conformist"
        string_val: "conformist"
        string_val: "conformist"
        string_val: "thrifty-protector"
        string_val: "thrifty-protector"
        string_val: "thrifty-protector"
        string_val: "thrifty-protector"
      }
    }
  }
}
node {
  name: "normalize_element/component_9"
  op: "Const"
  device: "/device:CPU:0"
  attr {
    key: "_output_shapes"
    value {
      list {
        shape {
          dim {
            size: 736
          }
        }
      }
    }
  }
  attr {
    key: "dtype"
    value {
      type: DT_INT32
    }
  }
  attr {
    key: "value"
    value {
      tensor {
        dtype: DT_INT32
        tensor_shape {
          dim {
            size: 736
          }
        }
        tensor_content: "…"
      }
    }
  }
}
node {
  name: "TensorSliceDataset"
  op: "TensorSliceDataset"
  input: "normalize_element/component_0"
  input: "normalize_element/component_1"
  input: "normalize_element/component_2"
  input: "normalize_element/component_3"
  input: "normalize_element/component_4"
  input: "normalize_element/component_5"
  input: "normalize_element/component_6"
  input: "normalize_element/component_7"
  input: "normalize_element/component_8"
  input: "normalize_element/component_9"
  device: "/device:CPU:0"
  attr {
    key: "Toutput_types"
    value {
      list {
        type: DT_STRING
        type: DT_FLOAT
        type: DT_FLOAT
        type: DT_STRING
        type: DT_STRING
        type: DT_FLOAT
        type: DT_FLOAT
        type: DT_STRING
        type: DT_STRING
        type: DT_INT32
      }
    }
  }
  attr {
    key: "_output_shapes"
    value {
      list {
        shape {
        }
      }
    }
  }
  attr {
    key: "output_shapes"
    value {
      list {
        shape {
        }
        shape {
        }
        shape {
        }
        shape {
        }
        shape {
        }
        shape {
        }
        shape {
        }
        shape {
        }
        shape {
        }
        shape {
        }
      }
    }
  }
}
node {
  name: "buffer_size"
  op: "Const"
  device: "/device:CPU:0"
  attr {
    key: "_output_shapes"
    value {
      list {
        shape {
        }
      }
    }
  }
  attr {
    key: "dtype"
    value {
      type: DT_INT64
    }
  }
  attr {
    key: "value"
    value {
      tensor {
        dtype: DT_INT64
        tensor_shape {
        }
        int64_val: 736
      }
    }
  }
}
node {
  name: "seed"
  op: "Const"
  device: "/device:CPU:0"
  attr {
    key: "_output_shapes"
    value {
      list {
        shape {
        }
      }
    }
  }
  attr {
    key: "dtype"
    value {
      type: DT_INT64
    }
  }
  attr {
    key: "value"
    value {
      tensor {
        dtype: DT_INT64
        tensor_shape {
        }
        int64_val: 42
      }
    }
  }
}
node {
  name: "seed2/Const"
  op: "Const"
  device: "/device:CPU:0"
  attr {
    key: "_output_shapes"
    value {
      list {
        shape {
        }
      }
    }
  }
  attr {
    key: "dtype"
    value {
      type: DT_INT64
    }
  }
  attr {
    key: "value"
    value {
      tensor {
        dtype: DT_INT64
        tensor_shape {
        }
        int64_val: 42
      }
    }
  }
}
node {
  name: "seed2/Equal/y"
  op: "Const"
  device: "/device:CPU:0"
  attr {
    key: "_output_shapes"
    value {
      list {
        shape {
        }
      }
    }
  }
  attr {
    key: "dtype"
    value {
      type: DT_INT64
    }
  }
  attr {
    key: "value"
    value {
      tensor {
        dtype: DT_INT64
        tensor_shape {
        }
        int64_val: 0
      }
    }
  }
}
node {
  name: "seed2/Equal"
  op: "Equal"
  input: "seed"
  input: "seed2/Equal/y"
  device: "/device:CPU:0"
  attr {
    key: "T"
    value {
      type: DT_INT64
    }
  }
  attr {
    key: "_output_shapes"
    value {
      list {
        shape {
        }
      }
    }
  }
  attr {
    key: "incompatible_shape_error"
    value {
      b: true
    }
  }
}
node {
  name: "seed2/Equal_1/y"
  op: "Const"
  device: "/device:CPU:0"
  attr {
    key: "_output_shapes"
    value {
      list {
        shape {
        }
      }
    }
  }
  attr {
    key: "dtype"
    value {
      type: DT_INT64
    }
  }
  attr {
    key: "value"
    value {
      tensor {
        dtype: DT_INT64
        tensor_shape {
        }
        int64_val: 0
      }
    }
  }
}
node {
  name: "seed2/Equal_1"
  op: "Equal"
  input: "seed2/Const"
  input: "seed2/Equal_1/y"
  device: "/device:CPU:0"
  attr {
    key: "T"
    value {
      type: DT_INT64
    }
  }
  attr {
    key: "_output_shapes"
    value {
      list {
        shape {
        }
      }
    }
  }
  attr {
    key: "incompatible_shape_error"
    value {
      b: true
    }
  }
}
node {
  name: "seed2/LogicalAnd"
  op: "LogicalAnd"
  input: "seed2/Equal"
  input: "seed2/Equal_1"
  device: "/device:CPU:0"
  attr {
    key: "_output_shapes"
    value {
      list {
        shape {
        }
      }
    }
  }
}
node {
  name: "seed2/Const_1"
  op: "Const"
  device: "/device:CPU:0"
  attr {
    key: "_output_shapes"
    value {
      list {
        shape {
        }
      }
    }
  }
  attr {
    key: "dtype"
    value {
      type: DT_INT64
    }
  }
  attr {
    key: "value"
    value {
      tensor {
        dtype: DT_INT64
        tensor_shape {
        }
        int64_val: 2147483647
      }
    }
  }
}
node {
  name: "seed2"
  op: "Select"
  input: "seed2/LogicalAnd"
  input: "seed2/Const_1"
  input: "seed2/Const"
  device: "/device:CPU:0"
  attr {
    key: "T"
    value {
      type: DT_INT64
    }
  }
  attr {
    key: "_output_shapes"
    value {
      list {
        shape {
        }
      }
    }
  }
}
node {
  name: "ShuffleDataset"
  op: "ShuffleDataset"
  input: "TensorSliceDataset"
  input: "buffer_size"
  input: "seed"
  input: "seed2"
  device: "/device:CPU:0"
  attr {
    key: "_output_shapes"
    value {
      list {
        shape {
        }
      }
    }
  }
  attr {
    key: "output_shapes"
    value {
      list {
        shape {
        }
        shape {
        }
        shape {
        }
        shape {
        }
        shape {
        }
        shape {
        }
        shape {
        }
        shape {
        }
        shape {
        }
        shape {
        }
      }
    }
  }
  attr {
    key: "output_types"
    value {
      list {
        type: DT_STRING
        type: DT_FLOAT
        type: DT_FLOAT
        type: DT_STRING
        type: DT_STRING
        type: DT_FLOAT
        type: DT_FLOAT
        type: DT_STRING
        type: DT_STRING
        type: DT_INT32
      }
    }
  }
  attr {
    key: "reshuffle_each_iteration"
    value {
      b: true
    }
  }
}
node {
  name: "count"
  op: "Const"
  device: "/device:CPU:0"
  attr {
    key: "_output_shapes"
    value {
      list {
        shape {
        }
      }
    }
  }
  attr {
    key: "dtype"
    value {
      type: DT_INT64
    }
  }
  attr {
    key: "value"
    value {
      tensor {
        dtype: DT_INT64
        tensor_shape {
        }
        int64_val: 10
      }
    }
  }
}
node {
  name: "RepeatDataset"
  op: "RepeatDataset"
  input: "ShuffleDataset"
  input: "count"
  device: "/device:CPU:0"
  attr {
    key: "_output_shapes"
    value {
      list {
        shape {
        }
      }
    }
  }
  attr {
    key: "output_shapes"
    value {
      list {
        shape {
        }
        shape {
        }
        shape {
        }
        shape {
        }
        shape {
        }
        shape {
        }
        shape {
        }
        shape {
        }
        shape {
        }
        shape {
        }
      }
    }
  }
  attr {
    key: "output_types"
    value {
      list {
        type: DT_STRING
        type: DT_FLOAT
        type: DT_FLOAT
        type: DT_STRING
        type: DT_STRING
        type: DT_FLOAT
        type: DT_FLOAT
        type: DT_STRING
        type: DT_STRING
        type: DT_INT32
      }
    }
  }
}
node {
  name: "batch_size"
  op: "Const"
  device: "/device:CPU:0"
  attr {
    key: "_output_shapes"
    value {
      list {
        shape {
        }
      }
    }
  }
  attr {
    key: "dtype"
    value {
      type: DT_INT64
    }
  }
  attr {
    key: "value"
    value {
      tensor {
        dtype: DT_INT64
        tensor_shape {
        }
        int64_val: 32
      }
    }
  }
}
node {
  name: "drop_remainder"
  op: "Const"
  device: "/device:CPU:0"
  attr {
    key: "_output_shapes"
    value {
      list {
        shape {
        }
      }
    }
  }
  attr {
    key: "dtype"
    value {
      type: DT_BOOL
    }
  }
  attr {
    key: "value"
    value {
      tensor {
        dtype: DT_BOOL
        tensor_shape {
        }
        bool_val: false
      }
    }
  }
}
node {
  name: "BatchDatasetV2"
  op: "BatchDatasetV2"
  input: "RepeatDataset"
  input: "batch_size"
  input: "drop_remainder"
  device: "/device:CPU:0"
  attr {
    key: "_output_shapes"
    value {
      list {
        shape {
        }
      }
    }
  }
  attr {
    key: "output_shapes"
    value {
      list {
        shape {
          dim {
            size: -1
          }
        }
        shape {
          dim {
            size: -1
          }
        }
        shape {
          dim {
            size: -1
          }
        }
        shape {
          dim {
            size: -1
          }
        }
        shape {
          dim {
            size: -1
          }
        }
        shape {
          dim {
            size: -1
          }
        }
        shape {
          dim {
            size: -1
          }
        }
        shape {
          dim {
            size: -1
          }
        }
        shape {
          dim {
            size: -1
          }
        }
        shape {
          dim {
            size: -1
          }
        }
      }
    }
  }
  attr {
    key: "output_types"
    value {
      list {
        type: DT_STRING
        type: DT_FLOAT
        type: DT_FLOAT
        type: DT_STRING
        type: DT_STRING
        type: DT_FLOAT
        type: DT_FLOAT
        type: DT_STRING
        type: DT_STRING
        type: DT_INT32
      }
    }
  }
  attr {
    key: "parallel_copy"
    value {
      b: false
    }
  }
}
node {
  name: "optimizations"
  op: "Const"
  attr {
    key: "_output_shapes"
    value {
      list {
        shape {
          dim {
            size: 3
          }
        }
      }
    }
  }
  attr {
    key: "dtype"
    value {
      type: DT_STRING
    }
  }
  attr {
    key: "value"
    value {
      tensor {
        dtype: DT_STRING
        tensor_shape {
          dim {
            size: 3
          }
        }
        string_val: "map_and_batch_fusion"
        string_val: "noop_elimination"
        string_val: "shuffle_and_repeat_fusion"
      }
    }
  }
}
node {
  name: "OptimizeDataset"
  op: "OptimizeDataset"
  input: "BatchDatasetV2"
  input: "optimizations"
  attr {
    key: "_output_shapes"
    value {
      list {
        shape {
        }
      }
    }
  }
  attr {
    key: "optimization_configs"
    value {
      list {
        s: "map_vectorization:use_choose_fastest:false"
      }
    }
  }
  attr {
    key: "output_shapes"
    value {
      list {
        shape {
          dim {
            size: -1
          }
        }
        shape {
          dim {
            size: -1
          }
        }
        shape {
          dim {
            size: -1
          }
        }
        shape {
          dim {
            size: -1
          }
        }
        shape {
          dim {
            size: -1
          }
        }
        shape {
          dim {
            size: -1
          }
        }
        shape {
          dim {
            size: -1
          }
        }
        shape {
          dim {
            size: -1
          }
        }
        shape {
          dim {
            size: -1
          }
        }
        shape {
          dim {
            size: -1
          }
        }
      }
    }
  }
  attr {
    key: "output_types"
    value {
      list {
        type: DT_STRING
        type: DT_FLOAT
        type: DT_FLOAT
        type: DT_STRING
        type: DT_STRING
        type: DT_FLOAT
        type: DT_FLOAT
        type: DT_STRING
        type: DT_STRING
        type: DT_INT32
      }
    }
  }
}
node {
  name: "ModelDataset"
  op: "ModelDataset"
  input: "OptimizeDataset"
  attr {
    key: "_output_shapes"
    value {
      list {
        shape {
        }
      }
    }
  }
  attr {
    key: "algorithm"
    value {
      i: 0
    }
  }
  attr {
    key: "cpu_budget"
    value {
      i: 0
    }
  }
  attr {
    key: "output_shapes"
    value {
      list {
        shape {
          dim {
            size: -1
          }
        }
        shape {
          dim {
            size: -1
          }
        }
        shape {
          dim {
            size: -1
          }
        }
        shape {
          dim {
            size: -1
          }
        }
        shape {
          dim {
            size: -1
          }
        }
        shape {
          dim {
            size: -1
          }
        }
        shape {
          dim {
            size: -1
          }
        }
        shape {
          dim {
            size: -1
          }
        }
        shape {
          dim {
            size: -1
          }
        }
        shape {
          dim {
            size: -1
          }
        }
      }
    }
  }
  attr {
    key: "output_types"
    value {
      list {
        type: DT_STRING
        type: DT_FLOAT
        type: DT_FLOAT
        type: DT_STRING
        type: DT_STRING
        type: DT_FLOAT
        type: DT_FLOAT
        type: DT_STRING
        type: DT_STRING
        type: DT_INT32
      }
    }
  }
}
node {
  name: "IteratorV2"
  op: "IteratorV2"
  attr {
    key: "_output_shapes"
    value {
      list {
        shape {
        }
      }
    }
  }
  attr {
    key: "container"
    value {
      s: ""
    }
  }
  attr {
    key: "output_shapes"
    value {
      list {
        shape {
          dim {
            size: -1
          }
        }
        shape {
          dim {
            size: -1
          }
        }
        shape {
          dim {
            size: -1
          }
        }
        shape {
          dim {
            size: -1
          }
        }
        shape {
          dim {
            size: -1
          }
        }
        shape {
          dim {
            size: -1
          }
        }
        shape {
          dim {
            size: -1
          }
        }
        shape {
          dim {
            size: -1
          }
        }
        shape {
          dim {
            size: -1
          }
        }
        shape {
          dim {
            size: -1
          }
        }
      }
    }
  }
  attr {
    key: "output_types"
    value {
      list {
        type: DT_STRING
        type: DT_FLOAT
        type: DT_FLOAT
        type: DT_STRING
        type: DT_STRING
        type: DT_FLOAT
        type: DT_FLOAT
        type: DT_STRING
        type: DT_STRING
        type: DT_INT32
      }
    }
  }
  attr {
    key: "shared_name"
    value {
      s: ""
    }
  }
}
node {
  name: "MakeIterator"
  op: "MakeIterator"
  input: "ModelDataset"
  input: "IteratorV2"
  attr {
    key: "_class"
    value {
      list {
        s: "loc:@IteratorV2"
      }
    }
  }
}
node {
  name: "IteratorToStringHandle"
  op: "IteratorToStringHandle"
  input: "IteratorV2"
  attr {
    key: "_output_shapes"
    value {
      list {
        shape {
        }
      }
    }
  }
}
node {
  name: "IteratorGetNext"
  op: "IteratorGetNext"
  input: "IteratorV2"
  attr {
    key: "_output_shapes"
    value {
      list {
        shape {
          dim {
            size: -1
          }
        }
        shape {
          dim {
            size: -1
          }
        }
        shape {
          dim {
            size: -1
          }
        }
        shape {
          dim {
            size: -1
          }
        }
        shape {
          dim {
            size: -1
          }
        }
        shape {
          dim {
            size: -1
          }
        }
        shape {
          dim {
            size: -1
          }
        }
        shape {
          dim {
            size: -1
          }
        }
        shape {
          dim {
            size: -1
          }
        }
        shape {
          dim {
            size: -1
          }
        }
      }
    }
  }
  attr {
    key: "output_shapes"
    value {
      list {
        shape {
          dim {
            size: -1
          }
        }
        shape {
          dim {
            size: -1
          }
        }
        shape {
          dim {
            size: -1
          }
        }
        shape {
          dim {
            size: -1
          }
        }
        shape {
          dim {
            size: -1
          }
        }
        shape {
          dim {
            size: -1
          }
        }
        shape {
          dim {
            size: -1
          }
        }
        shape {
          dim {
            size: -1
          }
        }
        shape {
          dim {
            size: -1
          }
        }
        shape {
          dim {
            size: -1
          }
        }
      }
    }
  }
  attr {
    key: "output_types"
    value {
      list {
        type: DT_STRING
        type: DT_FLOAT
        type: DT_FLOAT
        type: DT_STRING
        type: DT_STRING
        type: DT_FLOAT
        type: DT_FLOAT
        type: DT_STRING
        type: DT_STRING
        type: DT_INT32
      }
    }
  }
}
node {
  name: "dnn/input_from_feature_columns/input_layer/Item_embedding/embedding_weights/Initializer/truncated_normal/shape"
  op: "Const"
  attr {
    key: "_class"
    value {
      list {
        s: "loc:@dnn/input_from_feature_columns/input_layer/Item_embedding/embedding_weights"
      }
    }
  }
  attr {
    key: "_output_shapes"
    value {
      list {
        shape {
          dim {
            size: 2
          }
        }
      }
    }
  }
  attr {
    key: "dtype"
    value {
      type: DT_INT32
    }
  }
  attr {
    key: "value"
    value {
      tensor {
        dtype: DT_INT32
        tensor_shape {
          dim {
            size: 2
          }
        }
        tensor_content: "\201\000\000\000\010\000\000\000"
      }
    }
  }
}
node {
  name: "dnn/input_from_feature_columns/input_layer/Item_embedding/embedding_weights/Initializer/truncated_normal/mean"
  op: "Const"
  attr {
    key: "_class"
    value {
      list {
        s: "loc:@dnn/input_from_feature_columns/input_layer/Item_embedding/embedding_weights"
      }
    }
  }
  attr {
    key: "_output_shapes"
    value {
      list {
        shape {
        }
      }
    }
  }
  attr {
    key: "dtype"
    value {
      type: DT_FLOAT
    }
  }
  attr {
    key: "value"
    value {
      tensor {
        dtype: DT_FLOAT
        tensor_shape {
        }
        float_val: 0.0
      }
    }
  }
}
node {
  name: "dnn/input_from_feature_columns/input_layer/Item_embedding/embedding_weights/Initializer/truncated_normal/stddev"
  op: "Const"
  attr {
    key: "_class"
    value {
      list {
        s: "loc:@dnn/input_from_feature_columns/input_layer/Item_embedding/embedding_weights"
      }
    }
  }
  attr {
    key: "_output_shapes"
    value {
      list {
        shape {
        }
      }
    }
  }
  attr {
    key: "dtype"
    value {
      type: DT_FLOAT
    }
  }
  attr {
    key: "value"
    value {
      tensor {
        dtype: DT_FLOAT
        tensor_shape {
        }
        float_val: 0.3535533845424652
      }
    }
  }
}
node {
  name: "dnn/input_from_feature_columns/input_layer/Item_embedding/embedding_weights/Initializer/truncated_normal/TruncatedNormal"
  op: "TruncatedNormal"
  input: "dnn/input_from_feature_columns/input_layer/Item_embedding/embedding_weights/Initializer/truncated_normal/shape"
  attr {
    key: "T"
    value {
      type: DT_INT32
    }
  }
  attr {
    key: "_class"
    value {
      list {
        s: "loc:@dnn/input_from_feature_columns/input_layer/Item_embedding/embedding_weights"
      }
    }
  }
  attr {
    key: "_output_shapes"
    value {
      list {
        shape {
          dim {
            size: 129
          }
          dim {
            size: 8
          }
        }
      }
    }
  }
  attr {
    key: "dtype"
    value {
      type: DT_FLOAT
    }
  }
  attr {
    key: "seed"
    value {
      i: 42
    }
  }
  attr {
    key: "seed2"
    value {
      i: 47
    }
  }
}
node {
  name: "dnn/input_from_feature_columns/input_layer/Item_embedding/embedding_weights/Initializer/truncated_normal/mul"
  op: "Mul"
  input: "dnn/input_from_feature_columns/input_layer/Item_embedding/embedding_weights/Initializer/truncated_normal/TruncatedNormal"
  input: "dnn/input_from_feature_columns/input_layer/Item_embedding/embedding_weights/Initializer/truncated_normal/stddev"
  attr {
    key: "T"
    value {
      type: DT_FLOAT
    }
  }
  attr {
    key: "_class"
    value {
      list {
        s: "loc:@dnn/input_from_feature_columns/input_layer/Item_embedding/embedding_weights"
      }
    }
  }
  attr {
    key: "_output_shapes"
    value {
      list {
        shape {
          dim {
            size: 129
          }
          dim {
            size: 8
          }
        }
      }
    }
  }
}
node {
  name: "dnn/input_from_feature_columns/input_layer/Item_embedding/embedding_weights/Initializer/truncated_normal"
  op: "Add"
  input: "dnn/input_from_feature_columns/input_layer/Item_embedding/embedding_weights/Initializer/truncated_normal/mul"
  input: "dnn/input_from_feature_columns/input_layer/Item_embedding/embedding_weights/Initializer/truncated_normal/mean"
  attr {
    key: "T"
    value {
      type: DT_FLOAT
    }
  }
  attr {
    key: "_class"
    value {
      list {
        s: "loc:@dnn/input_from_feature_columns/input_layer/Item_embedding/embedding_weights"
      }
    }
  }
  attr {
    key: "_output_shapes"
    value {
      list {
        shape {
          dim {
            size: 129
          }
          dim {
            size: 8
          }
        }
      }
    }
  }
}
node {
  name: "dnn/input_from_feature_columns/input_layer/Item_embedding/embedding_weights"
  op: "VarHandleOp"
  attr {
    key: "_class"
    value {
      list {
        s: "loc:@dnn/input_from_feature_columns/input_layer/Item_embedding/embedding_weights"
      }
    }
  }
  attr {
    key: "_output_shapes"
    value {
      list {
        shape {
        }
      }
    }
  }
  attr {
    key: "container"
    value {
      s: ""
    }
  }
  attr {
    key: "dtype"
    value {
      type: DT_FLOAT
    }
  }
  attr {
    key: "shape"
    value {
      shape {
        dim {
          size: 129
        }
        dim {
          size: 8
        }
      }
    }
  }
  attr {
    key: "shared_name"
    value {
      s: "dnn/input_from_feature_columns/input_layer/Item_embedding/embedding_weights"
    }
  }
}
node {
  name: "dnn/input_from_feature_columns/input_layer/Item_embedding/embedding_weights/IsInitialized/VarIsInitializedOp"
  op: "VarIsInitializedOp"
  input: "dnn/input_from_feature_columns/input_layer/Item_embedding/embedding_weights"
  attr {
    key: "_output_shapes"
    value {
      list {
        shape {
        }
      }
    }
  }
}
node {
  name: "dnn/input_from_feature_columns/input_layer/Item_embedding/embedding_weights/Assign"
  op: "AssignVariableOp"
  input: "dnn/input_from_feature_columns/input_layer/Item_embedding/embedding_weights"
  input: "dnn/input_from_feature_columns/input_layer/Item_embedding/embedding_weights/Initializer/truncated_normal"
  attr {
    key: "dtype"
    value {
      type: DT_FLOAT
    }
  }
}
node {
  name: "dnn/input_from_feature_columns/input_layer/Item_embedding/embedding_weights/Read/ReadVariableOp"
  op: "ReadVariableOp"
  input: "dnn/input_from_feature_columns/input_layer/Item_embedding/embedding_weights"
  attr {
    key: "_output_shapes"
    value {
      list {
        shape {
          dim {
            size: 129
          }
          dim {
            size: 8
          }
        }
      }
    }
  }
  attr {
    key: "dtype"
    value {
      type: DT_FLOAT
    }
  }
}
node {
  name: "dnn/input_from_feature_columns/input_layer/Item_feat_3_embedding/embedding_weights/Initializer/truncated_normal/shape"
  op: "Const"
  attr {
    key: "_class"
    value {
      list {
        s: "loc:@dnn/input_from_feature_columns/input_layer/Item_feat_3_embedding/embedding_weights"
      }
    }
  }
  attr {
    key: "_output_shapes"
    value {
      list {
        shape {
          dim {
            size: 2
          }
        }
      }
    }
  }
  attr {
    key: "dtype"
    value {
      type: DT_INT32
    }
  }
  attr {
    key: "value"
    value {
      tensor {
        dtype: DT_INT32
        tensor_shape {
          dim {
            size: 2
          }
        }
        tensor_content: "\004\000\000\000\010\000\000\000"
      }
    }
  }
}
node {
  name: "dnn/input_from_feature_columns/input_layer/Item_feat_3_embedding/embedding_weights/Initializer/truncated_normal/mean"
  op: "Const"
  attr {
    key: "_class"
    value {
      list {
        s: "loc:@dnn/input_from_feature_columns/input_layer/Item_feat_3_embedding/embedding_weights"
      }
    }
  }
  attr {
    key: "_output_shapes"
    value {
      list {
        shape {
        }
      }
    }
  }
  attr {
    key: "dtype"
    value {
      type: DT_FLOAT
    }
  }
  attr {
    key: "value"
    value {
      tensor {
        dtype: DT_FLOAT
        tensor_shape {
        }
        float_val: 0.0
      }
    }
  }
}
node {
  name: "dnn/input_from_feature_columns/input_layer/Item_feat_3_embedding/embedding_weights/Initializer/truncated_normal/stddev"
  op: "Const"
  attr {
    key: "_class"
    value {
      list {
        s: "loc:@dnn/input_from_feature_columns/input_layer/Item_feat_3_embedding/embedding_weights"
      }
    }
  }
  attr {
    key: "_output_shapes"
    value {
      list {
        shape {
        }
      }
    }
  }
  attr {
    key: "dtype"
    value {
      type: DT_FLOAT
    }
  }
  attr {
    key: "value"
    value {
      tensor {
        dtype: DT_FLOAT
        tensor_shape {
        }
        float_val: 0.3535533845424652
      }
    }
  }
}
node {
  name: "dnn/input_from_feature_columns/input_layer/Item_feat_3_embedding/embedding_weights/Initializer/truncated_normal/TruncatedNormal"
  op: "TruncatedNormal"
  input: "dnn/input_from_feature_columns/input_layer/Item_feat_3_embedding/embedding_weights/Initializer/truncated_normal/shape"
  attr {
    key: "T"
    value {
      type: DT_INT32
    }
  }
  attr {
    key: "_class"
    value {
      list {
        s: "loc:@dnn/input_from_feature_columns/input_layer/Item_feat_3_embedding/embedding_weights"
      }
    }
  }
  attr {
    key: "_output_shapes"
    value {
      list {
        shape {
          dim {
            size: 4
          }
          dim {
            size: 8
          }
        }
      }
    }
  }
  attr {
    key: "dtype"
    value {
      type: DT_FLOAT
    }
  }
  attr {
    key: "seed"
    value {
      i: 42
    }
  }
  attr {
    key: "seed2"
    value {
      i: 57
    }
  }
}
node {
  name: "dnn/input_from_feature_columns/input_layer/Item_feat_3_embedding/embedding_weights/Initializer/truncated_normal/mul"
  op: "Mul"
  input: "dnn/input_from_feature_columns/input_layer/Item_feat_3_embedding/embedding_weights/Initializer/truncated_normal/TruncatedNormal"
  input: "dnn/input_from_feature_columns/input_layer/Item_feat_3_embedding/embedding_weights/Initializer/truncated_normal/stddev"
  attr {
    key: "T"
    value {
      type: DT_FLOAT
    }
  }
  attr {
    key: "_class"
    value {
      list {
        s: "loc:@dnn/input_from_feature_columns/input_layer/Item_feat_3_embedding/embedding_weights"
      }
    }
  }
  attr {
    key: "_output_shapes"
    value {
      list {
        shape {
          dim {
            size: 4
          }
          dim {
            size: 8
          }
        }
      }
    }
  }
}
node {
  name: "dnn/input_from_feature_columns/input_layer/Item_feat_3_embedding/embedding_weights/Initializer/truncated_normal"
  op: "Add"
  input: "dnn/input_from_feature_columns/input_layer/Item_feat_3_embedding/embedding_weights/Initializer/truncated_normal/mul"
  input: "dnn/input_from_feature_columns/input_layer/Item_feat_3_embedding/embedding_weights/Initializer/truncated_normal/mean"
  attr {
    key: "T"
    value {
      type: DT_FLOAT
    }
  }
  attr {
    key: "_class"
    value {
      list {
        s: "loc:@dnn/input_from_feature_columns/input_layer/Item_feat_3_embedding/embedding_weights"
      }
    }
  }
  attr {
    key: "_output_shapes"
    value {
      list {
        shape {
          dim {
            size: 4
          }
          dim {
            size: 8
          }
        }
      }
    }
  }
}
node {
  name: "dnn/input_from_feature_columns/input_layer/Item_feat_3_embedding/embedding_weights"
  op: "VarHandleOp"
  attr {
    key: "_class"
    value {
      list {
        s: "loc:@dnn/input_from_feature_columns/input_layer/Item_feat_3_embedding/embedding_weights"
      }
    }
  }
  attr {
    key: "_output_shapes"
    value {
      list {
        shape {
        }
      }
    }
  }
  attr {
    key: "container"
    value {
      s: ""
    }
  }
  attr {
    key: "dtype"
    value {
      type: DT_FLOAT
    }
  }
  attr {
    key: "shape"
    value {
      shape {
        dim {
          size: 4
        }
        dim {
          size: 8
        }
      }
    }
  }
  attr {
    key: "shared_name"
    value {
      s: "dnn/input_from_feature_columns/input_layer/Item_feat_3_embedding/embedding_weights"
    }
  }
}
node {
  name: "dnn/input_from_feature_columns/input_layer/Item_feat_3_embedding/embedding_weights/IsInitialized/VarIsInitializedOp"
  op: "VarIsInitializedOp"
…
      key: "optionalfromvalue_4"
      value: "OptionalFromValue_4:optional:0"
    }
    attr {
      key: "_input_shapes"
      value {
        list {
          shape {
            dim {
              size: -1
            }
            dim {
              size: 64
            }
          }
        }
      }
    }
    arg_attr {
      value {
      }
    }
  }
  function {
    signature {
      name: "zero_fraction_total_zero_zero_count_2_true_9885"
      input_arg {
        name: "placeholder"
        type: DT_RESOURCE
      }
      input_arg {
        name: "placeholder_1"
        type: DT_INT64
      }
      output_arg {
        name: "const"
        type: DT_FLOAT
      }
    }
    node_def {
      name: "Const"
      op: "Const"
      attr {
        key: "_output_shapes"
        value {
          list {
            shape {
            }
          }
        }
      }
      attr {
        key: "dtype"
        value {
          type: DT_FLOAT
        }
      }
      attr {
        key: "value"
        value {
          tensor {
            dtype: DT_FLOAT
            tensor_shape {
            }
            float_val: 0.0
          }
        }
      }
    }
    ret {
      key: "const"
      value: "Const:output:0"
    }
    attr {
      key: "_input_shapes"
      value {
        list {
          shape {
            unknown_rank: true
          }
          shape {
          }
        }
      }
    }
    arg_attr {
      value {
      }
    }
    arg_attr {
      key: 1
      value {
      }
    }
  }
  function {
    signature {
      name: "zero_fraction_1_cond_true_9935"
      input_arg {
        name: "count_nonzero_notequal_linear_linear_model_linear_linear_model_linear_linear_model_weighted_sum"
        type: DT_FLOAT
      }
      output_arg {
        name: "cast"
        type: DT_INT64
      }
    }
    node_def {
      name: "count_nonzero/zeros"
      op: "Const"
      attr {
        key: "_output_shapes"
        value {
          list {
            shape {
            }
          }
        }
      }
      attr {
        key: "dtype"
        value {
          type: DT_FLOAT
        }
      }
      attr {
        key: "value"
        value {
          tensor {
            dtype: DT_FLOAT
            tensor_shape {
            }
            float_val: 0.0
          }
        }
      }
    }
    node_def {
      name: "count_nonzero/NotEqual"
      op: "NotEqual"
      input: "count_nonzero_notequal_linear_linear_model_linear_linear_model_linear_linear_model_weighted_sum"
      input: "count_nonzero/zeros:output:0"
      attr {
        key: "T"
        value {
          type: DT_FLOAT
        }
      }
      attr {
        key: "_output_shapes"
        value {
          list {
            shape {
              dim {
                size: -1
              }
              dim {
                size: 1
              }
            }
          }
        }
      }
      attr {
        key: "incompatible_shape_error"
        value {
          b: true
        }
      }
    }
    node_def {
      name: "count_nonzero/Cast"
      op: "Cast"
      input: "count_nonzero/NotEqual:z:0"
      attr {
        key: "DstT"
        value {
          type: DT_INT32
        }
      }
      attr {
        key: "SrcT"
        value {
          type: DT_BOOL
        }
      }
      attr {
        key: "Truncate"
        value {
          b: false
        }
      }
      attr {
        key: "_output_shapes"
        value {
          list {
            shape {
              dim {
                size: -1
              }
              dim {
                size: 1
              }
            }
          }
        }
      }
    }
    node_def {
      name: "count_nonzero/Const"
      op: "Const"
      attr {
        key: "_output_shapes"
        value {
          list {
            shape {
              dim {
                size: 2
              }
            }
          }
        }
      }
      attr {
        key: "dtype"
        value {
          type: DT_INT32
        }
      }
      attr {
        key: "value"
        value {
          tensor {
            dtype: DT_INT32
            tensor_shape {
              dim {
                size: 2
              }
            }
            tensor_content: "\000\000\000\000\001\000\000\000"
          }
        }
      }
    }
    node_def {
      name: "count_nonzero/nonzero_count"
      op: "Sum"
      input: "count_nonzero/Cast:y:0"
      input: "count_nonzero/Const:output:0"
      attr {
        key: "T"
        value {
          type: DT_INT32
        }
      }
      attr {
        key: "Tidx"
        value {
          type: DT_INT32
        }
      }
      attr {
        key: "_output_shapes"
        value {
          list {
            shape {
            }
          }
        }
      }
      attr {
        key: "keep_dims"
        value {
          b: false
        }
      }
    }
    node_def {
      name: "Cast"
      op: "Cast"
      input: "count_nonzero/nonzero_count:output:0"
      attr {
        key: "DstT"
        value {
          type: DT_INT64
        }
      }
      attr {
        key: "SrcT"
        value {
          type: DT_INT32
        }
      }
      attr {
        key: "Truncate"
        value {
          b: false
        }
      }
      attr {
        key: "_output_shapes"
        value {
          list {
            shape {
            }
          }
        }
      }
    }
    ret {
      key: "cast"
      value: "Cast:y:0"
    }
    attr {
      key: "_input_shapes"
      value {
        list {
          shape {
            dim {
              size: -1
            }
            dim {
              size: 1
            }
          }
        }
      }
    }
    arg_attr {
      value {
      }
    }
  }
  function {
    signature {
      name: "dnn_zero_fraction_3_cond_true_9453"
      input_arg {
        name: "count_nonzero_notequal_dnn_logits_biasadd"
        type: DT_FLOAT
      }
      output_arg {
        name: "cast"
        type: DT_INT64
      }
      output_arg {
        name: "optionalfromvalue"
        type: DT_VARIANT
      }
      output_arg {
        name: "optionalfromvalue_1"
        type: DT_VARIANT
      }
      output_arg {
        name: "optionalfromvalue_2"
        type: DT_VARIANT
      }
      output_arg {
        name: "optionalfromvalue_3"
        type: DT_VARIANT
      }
      output_arg {
        name: "optionalfromvalue_4"
        type: DT_VARIANT
      }
    }
    node_def {
      name: "count_nonzero/zeros"
      op: "Const"
      attr {
        key: "_output_shapes"
        value {
          list {
            shape {
            }
          }
        }
      }
      attr {
        key: "dtype"
        value {
          type: DT_FLOAT
        }
      }
      attr {
        key: "value"
        value {
          tensor {
            dtype: DT_FLOAT
            tensor_shape {
            }
            float_val: 0.0
          }
        }
      }
    }
    node_def {
      name: "count_nonzero/NotEqual"
      op: "NotEqual"
      input: "count_nonzero_notequal_dnn_logits_biasadd"
      input: "count_nonzero/zeros:output:0"
      attr {
        key: "T"
        value {
          type: DT_FLOAT
        }
      }
      attr {
        key: "_output_shapes"
        value {
          list {
            shape {
              dim {
                size: -1
              }
              dim {
                size: 1
              }
            }
          }
        }
      }
      attr {
        key: "incompatible_shape_error"
        value {
          b: true
        }
      }
    }
    node_def {
      name: "count_nonzero/Cast"
      op: "Cast"
      input: "count_nonzero/NotEqual:z:0"
      attr {
        key: "DstT"
        value {
          type: DT_INT32
        }
      }
      attr {
        key: "SrcT"
        value {
          type: DT_BOOL
        }
      }
      attr {
        key: "Truncate"
        value {
          b: false
        }
      }
      attr {
        key: "_output_shapes"
        value {
          list {
            shape {
              dim {
                size: -1
              }
              dim {
                size: 1
              }
            }
          }
        }
      }
    }
    node_def {
      name: "count_nonzero/Const"
      op: "Const"
      attr {
        key: "_output_shapes"
        value {
          list {
            shape {
              dim {
                size: 2
              }
            }
          }
        }
      }
      attr {
        key: "dtype"
        value {
          type: DT_INT32
        }
      }
      attr {
        key: "value"
        value {
          tensor {
            dtype: DT_INT32
            tensor_shape {
              dim {
                size: 2
              }
            }
            tensor_content: "\000\000\000\000\001\000\000\000"
          }
        }
      }
    }
    node_def {
      name: "count_nonzero/nonzero_count"
      op: "Sum"
      input: "count_nonzero/Cast:y:0"
      input: "count_nonzero/Const:output:0"
      attr {
        key: "T"
        value {
          type: DT_INT32
        }
      }
      attr {
        key: "Tidx"
        value {
          type: DT_INT32
        }
      }
      attr {
        key: "_output_shapes"
        value {
          list {
            shape {
            }
          }
        }
      }
      attr {
        key: "keep_dims"
        value {
          b: false
        }
      }
    }
    node_def {
      name: "Cast"
      op: "Cast"
      input: "count_nonzero/nonzero_count:output:0"
      attr {
        key: "DstT"
        value {
          type: DT_INT64
        }
      }
      attr {
        key: "SrcT"
        value {
          type: DT_INT32
        }
      }
      attr {
        key: "Truncate"
        value {
          b: false
        }
      }
      attr {
        key: "_output_shapes"
        value {
          list {
            shape {
            }
          }
        }
      }
    }
    node_def {
      name: "OptionalFromValue"
      op: "OptionalFromValue"
      input: "count_nonzero/zeros:output:0"
      attr {
        key: "Toutput_types"
        value {
          list {
            type: DT_FLOAT
          }
        }
      }
      attr {
        key: "_output_shapes"
        value {
          list {
            shape {
            }
          }
        }
      }
    }
    node_def {
      name: "OptionalFromValue_1"
      op: "OptionalFromValue"
      input: "count_nonzero/NotEqual:z:0"
      attr {
        key: "Toutput_types"
        value {
          list {
            type: DT_BOOL
          }
        }
      }
      attr {
        key: "_output_shapes"
        value {
          list {
            shape {
            }
          }
        }
      }
    }
    node_def {
      name: "OptionalFromValue_2"
      op: "OptionalFromValue"
      input: "count_nonzero/Cast:y:0"
      attr {
        key: "Toutput_types"
        value {
          list {
            type: DT_INT32
          }
        }
      }
      attr {
        key: "_output_shapes"
        value {
          list {
            shape {
            }
          }
        }
      }
    }
    node_def {
      name: "OptionalFromValue_3"
      op: "OptionalFromValue"
      input: "count_nonzero/Const:output:0"
      attr {
        key: "Toutput_types"
        value {
          list {
            type: DT_INT32
          }
        }
      }
      attr {
        key: "_output_shapes"
        value {
          list {
            shape {
            }
          }
        }
      }
    }
    node_def {
      name: "OptionalFromValue_4"
      op: "OptionalFromValue"
      input: "count_nonzero/nonzero_count:output:0"
      attr {
        key: "Toutput_types"
        value {
          list {
            type: DT_INT32
          }
        }
      }
      attr {
        key: "_output_shapes"
        value {
          list {
            shape {
            }
          }
        }
      }
    }
    ret {
      key: "cast"
      value: "Cast:y:0"
    }
    ret {
      key: "optionalfromvalue"
      value: "OptionalFromValue:optional:0"
    }
    ret {
      key: "optionalfromvalue_1"
      value: "OptionalFromValue_1:optional:0"
    }
    ret {
      key: "optionalfromvalue_2"
      value: "OptionalFromValue_2:optional:0"
    }
    ret {
      key: "optionalfromvalue_3"
      value: "OptionalFromValue_3:optional:0"
    }
    ret {
      key: "optionalfromvalue_4"
      value: "OptionalFromValue_4:optional:0"
    }
    attr {
      key: "_input_shapes"
      value {
        list {
          shape {
            dim {
              size: -1
            }
            dim {
              size: 1
            }
          }
        }
      }
    }
    arg_attr {
      value {
      }
    }
  }
  function {
    signature {
      name: "dnn_zero_fraction_2_cond_true_9384"
      input_arg {
        name: "count_nonzero_notequal_dnn_hiddenlayer_2_batchnorm_2_batchnorm_add_1"
        type: DT_FLOAT
      }
      output_arg {
        name: "cast"
        type: DT_INT64
      }
      output_arg {
        name: "optionalfromvalue"
        type: DT_VARIANT
      }
      output_arg {
        name: "optionalfromvalue_1"
        type: DT_VARIANT
      }
      output_arg {
        name: "optionalfromvalue_2"
        type: DT_VARIANT
      }
      output_arg {
        name: "optionalfromvalue_3"
        type: DT_VARIANT
      }
      output_arg {
        name: "optionalfromvalue_4"
        type: DT_VARIANT
      }
    }
    node_def {
      name: "count_nonzero/zeros"
      op: "Const"
      attr {
        key: "_output_shapes"
        value {
          list {
            shape {
            }
          }
        }
      }
      attr {
        key: "dtype"
        value {
          type: DT_FLOAT
        }
      }
      attr {
        key: "value"
        value {
          tensor {
            dtype: DT_FLOAT
            tensor_shape {
            }
            float_val: 0.0
          }
        }
      }
    }
    node_def {
      name: "count_nonzero/NotEqual"
      op: "NotEqual"
      input: "count_nonzero_notequal_dnn_hiddenlayer_2_batchnorm_2_batchnorm_add_1"
      input: "count_nonzero/zeros:output:0"
      attr {
        key: "T"
        value {
          type: DT_FLOAT
        }
      }
      attr {
        key: "_output_shapes"
        value {
          list {
            shape {
              dim {
                size: -1
              }
              dim {
                size: 512
              }
            }
          }
        }
      }
      attr {
        key: "incompatible_shape_error"
        value {
          b: true
        }
      }
    }
    node_def {
      name: "count_nonzero/Cast"
      op: "Cast"
      input: "count_nonzero/NotEqual:z:0"
      attr {
        key: "DstT"
        value {
          type: DT_INT32
        }
      }
      attr {
        key: "SrcT"
        value {
          type: DT_BOOL
        }
      }
      attr {
        key: "Truncate"
        value {
          b: false
        }
      }
      attr {
        key: "_output_shapes"
        value {
          list {
            shape {
              dim {
                size: -1
              }
              dim {
                size: 512
              }
            }
          }
        }
      }
    }
    node_def {
      name: "count_nonzero/Const"
      op: "Const"
      attr {
        key: "_output_shapes"
        value {
          list {
            shape {
              dim {
                size: 2
              }
            }
          }
        }
      }
      attr {
        key: "dtype"
        value {
          type: DT_INT32
        }
      }
      attr {
        key: "value"
        value {
          tensor {
            dtype: DT_INT32
            tensor_shape {
              dim {
                size: 2
              }
            }
            tensor_content: "\000\000\000\000\001\000\000\000"
          }
        }
      }
    }
    node_def {
      name: "count_nonzero/nonzero_count"
      op: "Sum"
      input: "count_nonzero/Cast:y:0"
      input: "count_nonzero/Const:output:0"
      attr {
        key: "T"
        value {
          type: DT_INT32
        }
      }
      attr {
        key: "Tidx"
        value {
          type: DT_INT32
        }
      }
      attr {
        key: "_output_shapes"
        value {
          list {
            shape {
            }
          }
        }
      }
      attr {
        key: "keep_dims"
        value {
          b: false
        }
      }
    }
    node_def {
      name: "Cast"
      op: "Cast"
      input: "count_nonzero/nonzero_count:output:0"
      attr {
        key: "DstT"
        value {
          type: DT_INT64
        }
      }
      attr {
        key: "SrcT"
        value {
          type: DT_INT32
        }
      }
      attr {
        key: "Truncate"
        value {
          b: false
        }
      }
      attr {
        key: "_output_shapes"
        value {
          list {
            shape {
            }
          }
        }
      }
    }
    node_def {
      name: "OptionalFromValue"
      op: "OptionalFromValue"
      input: "count_nonzero/zeros:output:0"
      attr {
        key: "Toutput_types"
        value {
          list {
            type: DT_FLOAT
          }
        }
      }
      attr {
        key: "_output_shapes"
        value {
          list {
            shape {
            }
          }
        }
      }
    }
    node_def {
      name: "OptionalFromValue_1"
      op: "OptionalFromValue"
      input: "count_nonzero/NotEqual:z:0"
      attr {
        key: "Toutput_types"
        value {
          list {
            type: DT_BOOL
          }
        }
      }
      attr {
        key: "_output_shapes"
        value {
          list {
            shape {
            }
          }
        }
      }
    }
    node_def {
      name: "OptionalFromValue_2"
      op: "OptionalFromValue"
      input: "count_nonzero/Cast:y:0"
      attr {
        key: "Toutput_types"
        value {
          list {
            type: DT_INT32
          }
        }
      }
      attr {
        key: "_output_shapes"
        value {
          list {
            shape {
            }
          }
        }
      }
    }
    node_def {
      name: "OptionalFromValue_3"
      op: "OptionalFromValue"
      input: "count_nonzero/Const:output:0"
      attr {
        key: "Toutput_types"
        value {
          list {
            type: DT_INT32
          }
        }
      }
      attr {
        key: "_output_shapes"
        value {
          list {
            shape {
            }
          }
        }
      }
    }
    node_def {
      name: "OptionalFromValue_4"
      op: "OptionalFromValue"
      input: "count_nonzero/nonzero_count:output:0"
      attr {
        key: "Toutput_types"
        value {
          list {
            type: DT_INT32
          }
        }
      }
      attr {
        key: "_output_shapes"
        value {
          list {
            shape {
            }
          }
        }
      }
    }
    ret {
      key: "cast"
      value: "Cast:y:0"
    }
    ret {
      key: "optionalfromvalue"
      value: "OptionalFromValue:optional:0"
    }
    ret {
      key: "optionalfromvalue_1"
      value: "OptionalFromValue_1:optional:0"
    }
    ret {
      key: "optionalfromvalue_2"
      value: "OptionalFromValue_2:optional:0"
    }
    ret {
      key: "optionalfromvalue_3"
      value: "OptionalFromValue_3:optional:0"
    }
    ret {
      key: "optionalfromvalue_4"
      value: "OptionalFromValue_4:optional:0"
    }
    attr {
      key: "_input_shapes"
      value {
        list {
          shape {
            dim {
              size: -1
            }
            dim {
              size: 512
            }
          }
        }
      }
    }
    arg_attr {
      value {
      }
    }
  }
  function {
    signature {
      name: "global_step_cond_false_8356"
      input_arg {
        name: "placeholder"
        type: DT_RESOURCE
      }
      input_arg {
        name: "global_step_initializer_zeros_0"
        type: DT_INT64
      }
      output_arg {
        name: "global_step_initializer_zeros"
        type: DT_INT64
      }
    }
    ret {
      key: "global_step_initializer_zeros"
      value: "global_step_initializer_zeros_0"
    }
    attr {
      key: "_input_shapes"
      value {
        list {
          shape {
            unknown_rank: true
          }
          shape {
          }
        }
      }
    }
    arg_attr {
      value {
      }
    }
    arg_attr {
      key: 1
      value {
      }
    }
  }
  function {
    signature {
      name: "zero_fraction_total_zero_zero_count_2_false_9886"
      input_arg {
        name: "zero_fraction_readvariableop_linear_linear_model_user_weights"
        type: DT_RESOURCE
      }
      input_arg {
        name: "tofloat_zero_fraction_total_size_size_2"
        type: DT_INT64
      }
      output_arg {
        name: "mul"
        type: DT_FLOAT
      }
      is_stateful: true
    }
    node_def {
      name: "zero_fraction/ReadVariableOp"
      op: "ReadVariableOp"
      input: "zero_fraction_readvariableop_linear_linear_model_user_weights"
      attr {
        key: "_output_shapes"
        value {
          list {
            shape {
              dim {
                size: 139
              }
              dim {
                size: 1
              }
            }
          }
        }
      }
      attr {
        key: "dtype"
        value {
          type: DT_FLOAT
        }
      }
    }
    node_def {
      name: "zero_fraction/Size"
      op: "Const"
      attr {
        key: "_output_shapes"
        value {
          list {
            shape {
            }
          }
        }
      }
      attr {
        key: "dtype"
        value {
          type: DT_INT64
        }
      }
      attr {
        key: "value"
        value {
          tensor {
            dtype: DT_INT64
            tensor_shape {
            }
            int64_val: 139
          }
        }
      }
    }
    node_def {
      name: "zero_fraction/LessEqual/y"
      op: "Const"
      attr {
        key: "_output_shapes"
        value {
          list {
            shape {
            }
          }
        }
      }
      attr {
        key: "dtype"
        value {
          type: DT_INT64
        }
      }
      attr {
        key: "value"
        value {
          tensor {
            dtype: DT_INT64
            tensor_shape {
            }
            int64_val: 2147483647
          }
        }
      }
    }
    node_def {
      name: "zero_fraction/LessEqual"
      op: "LessEqual"
      input: "zero_fraction/Size:output:0"
      input: "zero_fraction/LessEqual/y:output:0"
      attr {
        key: "T"
        value {
          type: DT_INT64
        }
      }
      attr {
        key: "_output_shapes"
        value {
          list {
            shape {
            }
          }
        }
      }
    }
    node_def {
      name: "zero_fraction/cond"
      op: "StatelessIf"
      input: "zero_fraction/LessEqual:z:0"
      input: "zero_fraction/ReadVariableOp:value:0"
      attr {
        key: "Tcond"
        value {
          type: DT_BOOL
        }
      }
      attr {
        key: "Tin"
        value {
          list {
            type: DT_FLOAT
          }
        }
      }
      attr {
        key: "Tout"
        value {
          list {
            type: DT_INT64
          }
        }
      }
      attr {
        key: "_lower_using_switch_merge"
        value {
          b: true
        }
      }
      attr {
        key: "_output_shapes"
        value {
          list {
            shape {
            }
          }
        }
      }
      attr {
        key: "else_branch"
        value {
          func {
            name: "zero_fraction_cond_false_9896"
          }
        }
      }
      attr {
        key: "output_shapes"
        value {
          list {
            shape {
            }
          }
        }
      }
      attr {
        key: "then_branch"
        value {
          func {
            name: "zero_fraction_cond_true_9895"
          }
        }
      }
    }
    node_def {
      name: "zero_fraction/cond/Identity"
      op: "Identity"
      input: "zero_fraction/cond:output:0"
      attr {
        key: "T"
        value {
          type: DT_INT64
        }
      }
      attr {
        key: "_output_shapes"
        value {
          list {
            shape {
            }
          }
        }
      }
    }
    node_def {
      name: "zero_fraction/counts_to_fraction/sub"
      op: "Sub"
      input: "zero_fraction/Size:output:0"
      input: "zero_fraction/cond/Identity:output:0"
      attr {
        key: "T"
        value {
          type: DT_INT64
        }
      }
      attr {
        key: "_output_shapes"
        value {
          list {
            shape {
            }
          }
        }
      }
    }
    node_def {
      name: "zero_fraction/counts_to_fraction/Cast"
      op: "Cast"
      input: "zero_fraction/counts_to_fraction/sub:z:0"
      attr {
        key: "DstT"
        value {
          type: DT_FLOAT
        }
      }
      attr {
        key: "SrcT"
        value {
          type: DT_INT64
        }
      }
      attr {
        key: "Truncate"
        value {
          b: false
        }
      }
      attr {
        key: "_output_shapes"
        value {
          list {
            shape {
            }
          }
        }
      }
    }
    node_def {
      name: "zero_fraction/counts_to_fraction/Cast_1"
      op: "Cast"
      input: "zero_fraction/Size:output:0"
      attr {
        key: "DstT"
        value {
          type: DT_FLOAT
        }
      }
      attr {
        key: "SrcT"
        value {
          type: DT_INT64
        }
      }
      attr {
        key: "Truncate"
        value {
          b: false
        }
      }
      attr {
        key: "_output_shapes"
        value {
          list {
            shape {
            }
          }
        }
      }
    }
    node_def {
      name: "zero_fraction/counts_to_fraction/truediv"
      op: "RealDiv"
      input: "zero_fraction/counts_to_fraction/Cast:y:0"
      input: "zero_fraction/counts_to_fraction/Cast_1:y:0"
      attr {
        key: "T"
        value {
          type: DT_FLOAT
        }
      }
      attr {
        key: "_output_shapes"
        value {
          list {
            shape {
            }
          }
        }
      }
    }
    node_def {
      name: "zero_fraction/fraction"
      op: "Identity"
      input: "zero_fraction/counts_to_fraction/truediv:z:0"
      attr {
        key: "T"
        value {
          type: DT_FLOAT
        }
      }
      attr {
        key: "_output_shapes"
        value {
          list {
            shape {
            }
          }
        }
      }
    }
    node_def {
      name: "ToFloat"
      op: "Cast"
      input: "tofloat_zero_fraction_total_size_size_2"
      attr {
        key: "DstT"
        value {
          type: DT_FLOAT
        }
      }
      attr {
        key: "SrcT"
        value {
          type: DT_INT64
        }
      }
      attr {
        key: "Truncate"
        value {
          b: false
        }
      }
      attr {
        key: "_output_shapes"
        value {
          list {
            shape {
            }
          }
        }
      }
    }
    node_def {
      name: "mul_0"
      op: "Mul"
      input: "zero_fraction/fraction:output:0"
      input: "ToFloat:y:0"
      attr {
        key: "T"
        value {
          type: DT_FLOAT
        }
      }
    }
    ret {
      key: "mul"
      value: "mul_0:z:0"
    }
    attr {
      key: "_input_shapes"
      value {
        list {
          shape {
            unknown_rank: true
          }
          shape {
          }
        }
      }
    }
    arg_attr {
      value {
      }
    }
    arg_attr {
      key: 1
      value {
      }
    }
  }
  function {
    signature {
      name: "dnn_zero_fraction_1_cond_true_9251"
      input_arg {
        name: "count_nonzero_notequal_dnn_hiddenlayer_1_batchnorm_1_batchnorm_add_1"
        type: DT_FLOAT
      }
      output_arg {
        name: "cast"
        type: DT_INT64
      }
      output_arg {
        name: "optionalfromvalue"
        type: DT_VARIANT
      }
      output_arg {
        name: "optionalfromvalue_1"
        type: DT_VARIANT
      }
      output_arg {
        name: "optionalfromvalue_2"
        type: DT_VARIANT
      }
      output_arg {
        name: "optionalfromvalue_3"
        type: DT_VARIANT
      }
      output_arg {
        name: "optionalfromvalue_4"
        type: DT_VARIANT
      }
    }
    node_def {
      name: "count_nonzero/zeros"
      op: "Const"
      attr {
        key: "_output_shapes"
        value {
          list {
            shape {
            }
          }
        }
      }
      attr {
        key: "dtype"
        value {
          type: DT_FLOAT
        }
      }
      attr {
        key: "value"
        value {
          tensor {
            dtype: DT_FLOAT
            tensor_shape {
            }
            float_val: 0.0
          }
        }
      }
    }
    node_def {
      name: "count_nonzero/NotEqual"
      op: "NotEqual"
      input: "count_nonzero_notequal_dnn_hiddenlayer_1_batchnorm_1_batchnorm_add_1"
      input: "count_nonzero/zeros:output:0"
      attr {
        key: "T"
        value {
          type: DT_FLOAT
        }
      }
      attr {
        key: "_output_shapes"
        value {
          list {
            shape {
              dim {
                size: -1
              }
              dim {
                size: 128
              }
            }
          }
        }
      }
      attr {
        key: "incompatible_shape_error"
        value {
          b: true
        }
      }
    }
    node_def {
      name: "count_nonzero/Cast"
      op: "Cast"
      input: "count_nonzero/NotEqual:z:0"
      attr {
        key: "DstT"
        value {
          type: DT_INT32
        }
      }
      attr {
        key: "SrcT"
        value {
          type: DT_BOOL
        }
      }
      attr {
        key: "Truncate"
        value {
          b: false
        }
      }
      attr {
        key: "_output_shapes"
        value {
          list {
            shape {
              dim {
                size: -1
              }
              dim {
                size: 128
              }
            }
          }
        }
      }
    }
    node_def {
      name: "count_nonzero/Const"
      op: "Const"
      attr {
        key: "_output_shapes"
        value {
          list {
            shape {
              dim {
                size: 2
              }
            }
          }
        }
      }
      attr {
        key: "dtype"
        value {
          type: DT_INT32
        }
      }
      attr {
        key: "value"
        value {
          tensor {
            dtype: DT_INT32
            tensor_shape {
              dim {
                size: 2
              }
            }
            tensor_content: "\000\000\000\000\001\000\000\000"
          }
        }
      }
    }
    node_def {
      name: "count_nonzero/nonzero_count"
      op: "Sum"
      input: "count_nonzero/Cast:y:0"
      input: "count_nonzero/Const:output:0"
      attr {
        key: "T"
        value {
          type: DT_INT32
        }
      }
      attr {
        key: "Tidx"
        value {
          type: DT_INT32
        }
      }
      attr {
        key: "_output_shapes"
        value {
          list {
            shape {
            }
          }
        }
      }
      attr {
        key: "keep_dims"
        value {
          b: false
        }
      }
    }
    node_def {
      name: "Cast"
      op: "Cast"
      input: "count_nonzero/nonzero_count:output:0"
      attr {
        key: "DstT"
        value {
          type: DT_INT64
        }
      }
      attr {
        key: "SrcT"
        value {
          type: DT_INT32
        }
      }
      attr {
        key: "Truncate"
        value {
          b: false
        }
      }
      attr {
        key: "_output_shapes"
        value {
          list {
            shape {
            }
          }
        }
      }
    }
    node_def {
      name: "OptionalFromValue"
      op: "OptionalFromValue"
      input: "count_nonzero/zeros:output:0"
      attr {
        key: "Toutput_types"
        value {
          list {
            type: DT_FLOAT
          }
        }
      }
      attr {
        key: "_output_shapes"
        value {
          list {
            shape {
            }
          }
        }
      }
    }
    node_def {
      name: "OptionalFromValue_1"
      op: "OptionalFromValue"
      input: "count_nonzero/NotEqual:z:0"
      attr {
        key: "Toutput_types"
        value {
          list {
            type: DT_BOOL
          }
        }
      }
      attr {
        key: "_output_shapes"
        value {
          list {
            shape {
            }
          }
        }
      }
    }
    node_def {
      name: "OptionalFromValue_2"
      op: "OptionalFromValue"
      input: "count_nonzero/Cast:y:0"
      attr {
        key: "Toutput_types"
        value {
          list {
            type: DT_INT32
          }
        }
      }
      attr {
        key: "_output_shapes"
        value {
          list {
            shape {
            }
          }
        }
      }
    }
    node_def {
      name: "OptionalFromValue_3"
      op: "OptionalFromValue"
      input: "count_nonzero/Const:output:0"
      attr {
        key: "Toutput_types"
        value {
          list {
            type: DT_INT32
          }
        }
      }
      attr {
        key: "_output_shapes"
        value {
          list {
            shape {
            }
          }
        }
      }
    }
    node_def {
      name: "OptionalFromValue_4"
      op: "OptionalFromValue"
      input: "count_nonzero/nonzero_count:output:0"
      attr {
        key: "Toutput_types"
        value {
          list {
            type: DT_INT32
          }
        }
      }
      attr {
        key: "_output_shapes"
        value {
          list {
            shape {
            }
          }
        }
      }
    }
    ret {
      key: "cast"
      value: "Cast:y:0"
    }
    ret {
      key: "optionalfromvalue"
      value: "OptionalFromValue:optional:0"
    }
    ret {
      key: "optionalfromvalue_1"
      value: "OptionalFromValue_1:optional:0"
    }
    ret {
      key: "optionalfromvalue_2"
      value: "OptionalFromValue_2:optional:0"
    }
    ret {
      key: "optionalfromvalue_3"
      value: "OptionalFromValue_3:optional:0"
    }
    ret {
      key: "optionalfromvalue_4"
      value: "OptionalFromValue_4:optional:0"
    }
    attr {
      key: "_input_shapes"
      value {
        list {
          shape {
            dim {
              size: -1
            }
            dim {
              size: 128
            }
          }
        }
      }
    }
    arg_attr {
      value {
      }
    }
  }
  function {
    signature {
      name: "zero_fraction_cond_false_9896"
      input_arg {
        name: "count_nonzero_notequal_zero_fraction_readvariableop"
        type: DT_FLOAT
      }
      output_arg {
        name: "count_nonzero_nonzero_count"
        type: DT_INT64
      }
    }
    node_def {
      name: "count_nonzero/zeros"
      op: "Const"
      attr {
        key: "_output_shapes"
        value {
          list {
            shape {
            }
          }
        }
      }
      attr {
        key: "dtype"
        value {
          type: DT_FLOAT
        }
      }
      attr {
        key: "value"
        value {
          tensor {
            dtype: DT_FLOAT
            tensor_shape {
            }
            float_val: 0.0
          }
        }
      }
    }
    node_def {
      name: "count_nonzero/NotEqual"
      op: "NotEqual"
      input: "count_nonzero_notequal_zero_fraction_readvariableop"
      input: "count_nonzero/zeros:output:0"
      attr {
        key: "T"
        value {
          type: DT_FLOAT
        }
      }
      attr {
        key: "_output_shapes"
        value {
          list {
            shape {
              dim {
                size: 139
              }
              dim {
                size: 1
              }
            }
          }
        }
      }
      attr {
        key: "incompatible_shape_error"
        value {
          b: true
        }
      }
    }
    node_def {
      name: "count_nonzero/Cast"
      op: "Cast"
      input: "count_nonzero/NotEqual:z:0"
      attr {
        key: "DstT"
        value {
          type: DT_INT64
        }
      }
      attr {
        key: "SrcT"
        value {
          type: DT_BOOL
        }
      }
      attr {
        key: "Truncate"
        value {
          b: false
        }
      }
      attr {
        key: "_output_shapes"
        value {
          list {
            shape {
              dim {
                size: 139
              }
              dim {
                size: 1
              }
            }
          }
        }
      }
    }
    node_def {
      name: "count_nonzero/Const"
      op: "Const"
      attr {
        key: "_output_shapes"
        value {
          list {
            shape {
              dim {
                size: 2
              }
            }
          }
        }
      }
      attr {
        key: "dtype"
        value {
          type: DT_INT32
        }
      }
      attr {
        key: "value"
        value {
          tensor {
            dtype: DT_INT32
            tensor_shape {
              dim {
                size: 2
              }
            }
            tensor_content: "\000\000\000\000\001\000\000\000"
          }
        }
      }
    }
    node_def {
      name: "count_nonzero/nonzero_count"
      op: "Sum"
      input: "count_nonzero/Cast:y:0"
      input: "count_nonzero/Const:output:0"
      attr {
        key: "T"
        value {
          type: DT_INT64
        }
      }
      attr {
        key: "Tidx"
        value {
          type: DT_INT32
        }
      }
      attr {
        key: "_output_shapes"
        value {
          list {
            shape {
            }
          }
        }
      }
      attr {
        key: "keep_dims"
        value {
          b: false
        }
      }
    }
    ret {
      key: "count_nonzero_nonzero_count"
      value: "count_nonzero/nonzero_count:output:0"
    }
    attr {
      key: "_input_shapes"
      value {
        list {
          shape {
            dim {
              size: 139
            }
            dim {
              size: 1
            }
          }
        }
      }
    }
    arg_attr {
      value {
      }
    }
  }
  function {
    signature {
      name: "zero_fraction_total_zero_zero_count_1_false_9843"
      input_arg {
        name: "zero_fraction_readvariableop_linear_linear_model_item_x_user_weights"
        type: DT_RESOURCE
      }
      input_arg {
        name: "tofloat_zero_fraction_total_size_size_1"
        type: DT_INT64
      }
      output_arg {
        name: "mul"
        type: DT_FLOAT
      }
      is_stateful: true
    }
    node_def {
      name: "zero_fraction/ReadVariableOp"
      op: "ReadVariableOp"
      input: "zero_fraction_readvariableop_linear_linear_model_item_x_user_weights"
      attr {
        key: "_output_shapes"
        value {
          list {
            shape {
              dim {
                size: 1000
              }
              dim {
                size: 1
              }
            }
          }
        }
      }
      attr {
        key: "dtype"
        value {
          type: DT_FLOAT
        }
      }
    }
    node_def {
      name: "zero_fraction/Size"
      op: "Const"
      attr {
        key: "_output_shapes"
        value {
          list {
            shape {
            }
          }
        }
      }
      attr {
        key: "dtype"
        value {
          type: DT_INT64
        }
      }
      attr {
        key: "value"
        value {
          tensor {
            dtype: DT_INT64
            tensor_shape {
            }
            int64_val: 1000
          }
        }
      }
    }
    node_def {
      name: "zero_fraction/LessEqual/y"
      op: "Const"
      attr {
        key: "_output_shapes"
        value {
          list {
            shape {
            }
          }
        }
      }
      attr {
        key: "dtype"
        value {
          type: DT_INT64
        }
      }
      attr {
        key: "value"
        value {
          tensor {
            dtype: DT_INT64
            tensor_shape {
            }
            int64_val: 2147483647
          }
        }
      }
    }
    node_def {
      name: "zero_fraction/LessEqual"
      op: "LessEqual"
      input: "zero_fraction/Size:output:0"
      input: "zero_fraction/LessEqual/y:output:0"
      attr {
        key: "T"
        value {
          type: DT_INT64
        }
      }
      attr {
        key: "_output_shapes"
        value {
          list {
            shape {
            }
          }
        }
      }
    }
    node_def {
      name: "zero_fraction/cond"
      op: "StatelessIf"
      input: "zero_fraction/LessEqual:z:0"
      input: "zero_fraction/ReadVariableOp:value:0"
      attr {
        key: "Tcond"
        value {
          type: DT_BOOL
        }
      }
      attr {
        key: "Tin"
        value {
          list {
            type: DT_FLOAT
          }
        }
      }
      attr {
        key: "Tout"
        value {
          list {
            type: DT_INT64
          }
        }
      }
      attr {
        key: "_lower_using_switch_merge"
        value {
          b: true
        }
      }
      attr {
        key: "_output_shapes"
        value {
          list {
            shape {
            }
          }
        }
      }
      attr {
        key: "else_branch"
        value {
          func {
            name: "zero_fraction_cond_false_9853"
          }
        }
      }
      attr {
        key: "output_shapes"
        value {
          list {
            shape {
            }
          }
        }
      }
      attr {
        key: "then_branch"
        value {
          func {
            name: "zero_fraction_cond_true_9852"
          }
        }
      }
    }
    node_def {
      name: "zero_fraction/cond/Identity"
      op: "Identity"
      input: "zero_fraction/cond:output:0"
      attr {
        key: "T"
        value {
          type: DT_INT64
        }
      }
      attr {
        key: "_output_shapes"
        value {
          list {
            shape {
            }
          }
        }
      }
    }
    node_def {
      name: "zero_fraction/counts_to_fraction/sub"
      op: "Sub"
      input: "zero_fraction/Size:output:0"
      input: "zero_fraction/cond/Identity:output:0"
      attr {
        key: "T"
        value {
          type: DT_INT64
        }
      }
      attr {
        key: "_output_shapes"
        value {
          list {
            shape {
            }
          }
        }
      }
    }
    node_def {
      name: "zero_fraction/counts_to_fraction/Cast"
      op: "Cast"
      input: "zero_fraction/counts_to_fraction/sub:z:0"
      attr {
        key: "DstT"
        value {
          type: DT_FLOAT
        }
      }
      attr {
        key: "SrcT"
        value {
          type: DT_INT64
        }
      }
      attr {
        key: "Truncate"
        value {
          b: false
        }
      }
      attr {
        key: "_output_shapes"
        value {
          list {
            shape {
            }
          }
        }
      }
    }
    node_def {
      name: "zero_fraction/counts_to_fraction/Cast_1"
      op: "Cast"
      input: "zero_fraction/Size:output:0"
      attr {
        key: "DstT"
        value {
          type: DT_FLOAT
        }
      }
      attr {
        key: "SrcT"
        value {
          type: DT_INT64
        }
      }
      attr {
        key: "Truncate"
        value {
          b: false
        }
      }
      attr {
        key: "_output_shapes"
        value {
          list {
            shape {
            }
          }
        }
      }
    }
    node_def {
      name: "zero_fraction/counts_to_fraction/truediv"
      op: "RealDiv"
      input: "zero_fraction/counts_to_fraction/Cast:y:0"
      input: "zero_fraction/counts_to_fraction/Cast_1:y:0"
      attr {
        key: "T"
        value {
          type: DT_FLOAT
        }
      }
      attr {
        key: "_output_shapes"
        value {
          list {
            shape {
            }
          }
        }
      }
    }
    node_def {
      name: "zero_fraction/fraction"
      op: "Identity"
      input: "zero_fraction/counts_to_fraction/truediv:z:0"
      attr {
        key: "T"
        value {
          type: DT_FLOAT
        }
      }
      attr {
        key: "_output_shapes"
        value {
          list {
            shape {
            }
          }
        }
      }
    }
    node_def {
      name: "ToFloat"
      op: "Cast"
      input: "tofloat_zero_fraction_total_size_size_1"
      attr {
        key: "DstT"
        value {
          type: DT_FLOAT
        }
      }
      attr {
        key: "SrcT"
        value {
          type: DT_INT64
        }
      }
      attr {
        key: "Truncate"
        value {
          b: false
        }
      }
      attr {
        key: "_output_shapes"
        value {
          list {
            shape {
            }
          }
        }
      }
    }
    node_def {
      name: "mul_0"
      op: "Mul"
      input: "zero_fraction/fraction:output:0"
      input: "ToFloat:y:0"
      attr {
        key: "T"
        value {
          type: DT_FLOAT
        }
      }
    }
    ret {
      key: "mul"
      value: "mul_0:z:0"
    }
    attr {
      key: "_input_shapes"
      value {
        list {
          shape {
            unknown_rank: true
          }
          shape {
          }
        }
      }
    }
    arg_attr {
      value {
      }
    }
    arg_attr {
      key: 1
      value {
      }
    }
  }
  function {
    signature {
      name: "zero_fraction_1_cond_false_9936"
      input_arg {
        name: "count_nonzero_notequal_linear_linear_model_linear_linear_model_linear_linear_model_weighted_sum"
        type: DT_FLOAT
      }
      output_arg {
        name: "count_nonzero_nonzero_count"
        type: DT_INT64
      }
    }
    node_def {
      name: "count_nonzero/zeros"
      op: "Const"
      attr {
        key: "_output_shapes"
        value {
          list {
            shape {
            }
          }
        }
      }
      attr {
        key: "dtype"
        value {
          type: DT_FLOAT
        }
      }
      attr {
        key: "value"
        value {
          tensor {
            dtype: DT_FLOAT
            tensor_shape {
            }
            float_val: 0.0
          }
        }
      }
    }
    node_def {
      name: "count_nonzero/NotEqual"
      op: "NotEqual"
      input: "count_nonzero_notequal_linear_linear_model_linear_linear_model_linear_linear_model_weighted_sum"
      input: "count_nonzero/zeros:output:0"
      attr {
        key: "T"
        value {
          type: DT_FLOAT
        }
      }
      attr {
        key: "_output_shapes"
        value {
          list {
            shape {
              dim {
                size: -1
              }
              dim {
                size: 1
              }
            }
          }
        }
      }
      attr {
        key: "incompatible_shape_error"
        value {
          b: true
        }
      }
    }
    node_def {
      name: "count_nonzero/Cast"
      op: "Cast"
      input: "count_nonzero/NotEqual:z:0"
      attr {
        key: "DstT"
        value {
          type: DT_INT64
        }
      }
      attr {
        key: "SrcT"
        value {
          type: DT_BOOL
        }
      }
      attr {
        key: "Truncate"
        value {
          b: false
        }
      }
      attr {
        key: "_output_shapes"
        value {
          list {
            shape {
              dim {
                size: -1
              }
              dim {
                size: 1
              }
            }
          }
        }
      }
    }
    node_def {
      name: "count_nonzero/Const"
      op: "Const"
      attr {
        key: "_output_shapes"
        value {
          list {
            shape {
              dim {
                size: 2
              }
            }
          }
        }
      }
      attr {
        key: "dtype"
        value {
          type: DT_INT32
        }
      }
      attr {
        key: "value"
        value {
          tensor {
            dtype: DT_INT32
            tensor_shape {
              dim {
                size: 2
              }
            }
            tensor_content: "\000\000\000\000\001\000\000\000"
          }
        }
      }
    }
    node_def {
      name: "count_nonzero/nonzero_count"
      op: "Sum"
      input: "count_nonzero/Cast:y:0"
      input: "count_nonzero/Const:output:0"
      attr {
        key: "T"
        value {
          type: DT_INT64
        }
      }
      attr {
        key: "Tidx"
        value {
          type: DT_INT32
        }
      }
      attr {
        key: "_output_shapes"
        value {
          list {
            shape {
            }
          }
        }
      }
      attr {
        key: "keep_dims"
        value {
          b: false
        }
      }
    }
    ret {
      key: "count_nonzero_nonzero_count"
      value: "count_nonzero/nonzero_count:output:0"
    }
    attr {
      key: "_input_shapes"
      value {
        list {
          shape {
            dim {
              size: -1
            }
            dim {
              size: 1
            }
          }
        }
      }
    }
    arg_attr {
      value {
      }
    }
  }
}
versions {
  producer: 119
  min_consumer: 12
}
